model_stgcn_backbone_classifier/back_classifier_transformer_val_64.pt (torch, 413154 bytes, 28 tensors)

transformer_encoder.layers.0.self_attn.in_proj_weight f4 [192, 64]
0.017533481 0.065497264 -0.14260921 -0.061703537 0.03276041 0.06455775 -0.13830239 0.11568659
-0.02145054 -0.13676429 -0.1025491 0.025409086 0.14222015 0.07488418 -0.121595666 0.048166666
0.08453127 -0.09686661 -0.117346086 0.1364012 0.032423995 -0.015329101 0.123615205 0.08943072
0.09287969 0.031998426 0.03422881 -0.03303945 0.046438448 -0.13021259 -0.15184925 -0.08071311
0.043882024 -0.084972404 -0.05601303 -0.028122764 -0.032160256 -0.030501531 0.03743661 0.07799422
-0.06637915 -0.1357496 0.08411201 0.0067410157 -0.0592144 -0.1116808 -0.14781137 -0.15048419
-0.08801266 -0.07887842 -0.12800334 -0.08232732 0.0012423493 -0.15035841 -0.098056465 -0.12416875
-0.056843147 -0.097426854 -0.058817778 0.107088484 -0.00060220686 -0.04100737 -0.054081008 -0.009778031
-0.153005 -0.013938649 -0.13018085 0.14723967 -0.13554354 -0.11614115 -0.032510143 -0.1070803
0.10777498 0.059277102 0.015134204 0.06424521 -0.03600063 -0.1511009 0.114753224 0.0553618
-0.13041967 -0.0039177714 0.04592739 0.13310128 0.10932706 0.03999541 0.059196044 -0.072655775
0.07113182 -0.11561872 -0.006271506 0.016933983 0.09113442 -0.021283107 0.15118307 -0.14453524
0.021277128 0.12925065 0.027634598 0.015564245 0.03898451 -0.12830772 0.067619324 -0.05527292
-0.12388721 -0.019249951 -0.11066824 0.13113502 0.12775353 0.06692792 -0.009284775 0.03878349
-0.03951278 0.07568327 -0.102359466 0.03825503 0.14374204 0.14297844 0.063233994 -0.11946396
0.08512267 0.03496412 -0.011176568 0.021544218 -0.02239474 0.00041489318 -0.012350602 0.01753599
0.03169478 -0.14920807 -0.09375573 0.07814008 -0.06563539 0.060097553 -0.09612167 0.10755042
-0.114988096 0.11282853 0.029217463 -0.029821144 0.1498232 0.064626105 0.1239891 0.107139885
0.07313229 -0.09642147 -0.10633107 -0.10678696 0.048407715 0.097588986 0.14978415 -0.11189717
0.011219862 0.03773672 -0.06355172 0.10940673 -0.13001211 0.0553583 -0.053437855 0.10959548
-0.09014154 -0.023418257 -0.01413216 0.018873915 -0.055812746 0.052268572 -0.08394876 0.07171291
-0.07633418 -0.06095226 -0.03466473 -0.10161679 -0.06425036 0.06993468 0.13391626 -0.052183643
-0.09529005 0.037424207 0.05249189 0.122710444 -0.13859962 -0.0371602 0.14607649 -0.02872142
-0.060303193 0.124772854 0.015942486 0.110229515 -0.13709545 -0.017935747 0.0027442896 -0.06710434
-0.06955037 -0.12987253 -0.076579 -0.021826688 0.012925125 0.12328684 0.07497752 -0.06635249
-0.08755337 -0.12894325 -0.11756664 -0.07974397 -0.012087098 0.008584275 -0.11528002 0.025893036
0.040741738 0.00034790428 0.02569427 -0.14516461 0.13971359 0.10882684 0.0090168035 -0.12840189
-0.053968236 0.10566218 -0.08924031 -0.11335364 0.09274205 0.0009839179 0.024414122 -0.06468129
-0.087231025 -0.09181351 -0.014385186 -0.0017108507 -0.045806948 -0.0607124 -0.043256033 0.02918385
-0.1500546 0.04648404 5.1435243e-05 -0.1425391 0.04305759 -0.12872845 -0.013907635 0.12864906
0.10213601 -0.016331924 -0.08828901 -0.13144737 -0.054824915 0.14824216 -0.038993027 -0.0003275503
0.010243462 -0.14937401 -0.049110845 0.15165943 0.053280573 0.025725652 -0.10334363 0.111467056
00000000: 60a2 8f3c 6e23 863d 2608 12be d9bc 7cbd
00000010: c82f 063d db36 843d 249f 0dbe 17ed ec3d
00000020: 0bb9 afbc f00b 0cbe 4305 d2bd b726 d03c
00000030: 29a2 113e e15c 993d 2607 f9bd 694a 453d
00000040: bb1e ad3d 0062 c6bd 2553 f0bd c2ac 0b3e
00000050: 06cf 043d e926 7bbc f829 fd3d 7427 b73d
00000060: b537 be3d c810 033d 8233 0c3d 6054 07bd
00000070: 3e36 3e3d 7356 05be 5f7e 1bbe ea4c a5bd
00000080: a3bd 333d 0306 aebd eb6d 65bd b661 e6bc
00000090: 79ba 03bd 59de f9bc 2157 193d 6fbb 9f3d
000000a0: cbf1 87bd f101 0bbe eb42 ac3d bde3 dc3b
000000b0: cc8a 72bd e7b8 e4bd dd5b 17be 8718 1abe
000000c0: fb3f b4bd 028b a1bd 4f13 03be 3a9b a8bd
000000d0: 53d6 a23a 8ef7 19be d4d1 c8bd 304c febd
000000e0: 5cd4 68bd bb87 c7bd e9ea 70bd 3551 db3d
000000f0: 6bdd 1dba 58f7 27bd 0c84 5dbd 0934 20bc
00000100: 58ad 1cbe ee5e 64bc 214e 05be ffc5 163e
00000110: edcb 0abe 69db edbd 5b29 05bd eb4c dbbd
00000120: 21b9 dc3d 8ccc 723d 74f5 773c fe92 833d
00000130: 6675 13bd 32ba 1abe bd03 eb3d 0ec3 623d
00000140: bc8c 05be a660 80bb 5c1e 3c3d b44b 083e
00000150: dee6 df3d 3ad2 233d 8d77 723d 8dcc 94bd
00000160: 8fad 913d 82c9 ecbd 3581 cdbb 23b9 8a3c
00000170: afa4 ba3d e959 aebc bccf 1a3e 0c01 14be
00000180: 5f4d ae3c 485a 043e f461 e23c 2d01 7f3c
00000190: 39ae 1f3d 1963 03be 007c 8a3d db65 62bd
000001a0: 94b8 fdbd 13b2 9dbc 08a6 e2bd 4248 063e
000001b0: d2d1 023e 8111 893d 2b1f 18bc 70db 1e3d
000001c0: 27d8 21bd d5ff 9a3d d7a1 d1bd 4eb1 1c3d
000001d0: 1d31 133e f168 123e d380 813d 85a9 f4bd
000001e0: cb54 ae3d 8936 0f3d ed1d 37bc 807d b03c
000001f0: 2c75 b7bc 0586 d939 2e5a 4abc a3a7 8f3c
00000200: 63d2 013d 00ca 18be 0103 c0bd e807 a03d
00000210: d96b 86bd da28 763d 70db c4bd 6543 dc3d
00000220: e17e ebbd a512 e73d 7659 ef3c 794b f4bc
00000230: 416b 193e b15a 843d ffed fd3d 286c db3d
00000240: 62c6 953d 9f78 c5bd 1bc4 d9bd 1fb3 dabd
00000250: 2b47 463d bcdc c73d 0461 193e 582a e5bd
00000260: 83d3 373c d291 1a3d 6727 82bd a310 e03d
00000270: e521 05be 63bf 623d a7e1 5abd 9873 e03d
00000280: 219c b8bd a5d7 bfbc 938a 67bc 789d 9a3c
00000290: e89b 64bd 9217 563d 54ed abbd 38de 923d
000002a0: 1855 9cbd 14a9 79bd 9bfc 0dbd 771c d0bd
000002b0: b195 83bd ea39 8f3d 5821 093e 84be 55bd
000002c0: 6e27 c3bd 204a 193d bc01 573d 9d4f fb3d
000002d0: 0fed 0dbe 4b35 18bd 1395 153e 2f49 ebbc
000002e0: 7b00 77bd e988 ff3d d199 823c 03c0 e13d
000002f0: c062 0cbe fded 92bc 8ad9 333b 006e 89bd
00000300: 6d70 8ebd 4efd 04be 73d5 9cbd e2cd b2bc
00000310: e7c3 533c d07d fc3d d08d 993d d0e3 87bd
00000320: 2e4f b3bd b309 04be c7c6 f0bd ce50 a3bd
00000330: f708 46bc 0fa5 0c3c ee17 ecbd a21d d43c
00000340: cfe0 263d ec66 b639 ca7c d23c 08a6 14be
00000350: 1411 0f3e 9be0 de3d 37bb 133c c97b 03be
00000360: cc0d 5dbd 6a65 d83d a0c3 b6bd f425 e8bd
00000370: 8bef bd3d cef6 803a 2000 c83c a077 84bd
00000380: 2ea6 b2bd b908 bcbd d8af 6bbc a03e e0ba
00000390: 11a0 3bbd 91ad 78bd 3d2d 31bd f812 ef3c
000003a0: eaa7 19be 0c66 3e3d 2cbc 5738 c5f5 11be
000003b0: 285d 303d 64d1 03be d9dc 63bc 94bc 033e
000003c0: af2c d13d 87ca 85bc ded0 b4bd 249a 06be
000003d0: 1790 60bd cbcc 173e 27b7 1fbd 0fbb abb9
000003e0: 32d4 273c 80f5 18be 7428 49bd 9c4c 1b3e
000003f0: bb3c 5a3d 9abe d23c d3a5 d3bd d748 e43d

transformer_encoder.layers.0.self_attn.in_proj_bias f4 [192]
-0.00017881425 -7.476121e-05 -0.0002706955 0.0002400266 -0.00017207015 3.719884e-05 -1.1063342e-05 0.00012675555
-0.00023111075 -0.00020861755 1.7451743e-05 7.2467614e-05 -1.7980567e-05 0.00021537866 -0.000106154024 5.3639385e-05
-0.00012408574 -8.033969e-06 0.00025607873 -0.00015760364 -7.153481e-05 8.73814e-05 1.3366655e-05 1.9837105e-06
-0.00016094002 0.00011978287 4.583231e-05 -0.00019559647 -6.303837e-05 -0.00013420744 -4.2282486e-06 -2.7339422e-05
6.045794e-05 0.00011190841 8.345214e-05 -4.1524385e-05 0.00032868248 0.00014698457 -0.00011544678 0.00021049815
-1.9772331e-05 -1.7531625e-05 0.00012743601 -5.994365e-05 3.311991e-05 -0.00019591751 -0.00027780543 8.078932e-05
2.7957341e-05 0.00015302438 3.815187e-06 0.00023587338 5.6153203e-05 -0.000117739386 -4.2052536e-05 0.00027433623
0.00015073581 2.903244e-05 -2.5082247e-05 5.5325625e-05 -0.0001480671 0.00013835973 3.0728986e-06 -0.00013757085
-4.3710857e-05 0.00017086662 -1.5520782e-05 -4.8023157e-05 4.0810493e-05 0.00011787011 -6.382771e-05 -0.00014782966
0.000119283824 0.00015161125 -0.00018926975 6.3702435e-05 0.00018346417 -4.7879315e-05 -0.00015129607 -0.00021466345
-5.399986e-05 -0.00013094764 5.7840174e-05 0.0003655504 0.00021220649 0.00018654384 -0.000110708526 -0.00012326642
-0.00024717828 0.00024240122 2.1010674e-05 0.00022668694 0.0003939552 -7.264044e-05 4.394482e-05 2.4311954e-05
-0.0002102578 -1.559885e-05 0.00013901757 -0.00023969485 -0.00031962153 -7.6790486e-05 0.00016578463 -0.00024185298
0.00017623934 -0.00017409222 -0.00012315101 0.000120217126 2.9859839e-05 -6.788394e-05 -0.00018495947 -0.00012325987
2.177026e-05 0.00013917722 0.00020129158 9.450171e-05 -0.00022017173 0.0001121182 -2.319691e-05 6.6734185e-07
0.00020034071 0.000101500205 -8.931566e-05 -9.3573246e-05 -0.00030211252 5.7458914e-05 -6.752272e-05 0.00022094314
0.0024995017 -0.012359608 -0.005940429 0.009415482 -0.013178909 -0.002614233 -0.01513752 0.009722912
-0.0069070095 -0.011992821 -0.008110813 0.0019603996 -0.0014760016 -0.017603861 -0.0018205633 0.0065646186
-0.0073333383 0.017258447 -0.0045794765 -0.0089804325 0.0011652265 -0.010524438 -0.016909596 -0.017373556
-0.008916936 -0.014129655 0.011917899 0.008127923 -0.018073367 -0.01765976 -0.004678453 -0.003359739
0.030084688 -0.00944811 -0.0118061965 -0.0120825 -0.010498766 -0.011007163 0.019729178 -0.0062154816
0.0051773554 0.020578766 0.0037227455 -0.0048538465 0.00024179969 -0.012264623 0.0034972401 0.0016639676
0.0019806873 -0.010312266 -0.0066493168 -0.009105085 0.001982594 0.016265329 -0.010923981 -0.020608092
0.001672109 -0.005862025 -0.0033131454 -0.0035394242 -0.018983867 0.013514588 -0.0079255365 0.0034974378
00000000: 1680 3bb9 1ec9 9cb8 23ec 8db9 a6af 7b39
00000010: bb6d 34b9 f305 1c38 b19c 39b7 afe9 0439
00000020: 5256 72b9 59c0 5ab9 5565 9237 c1f9 9738
00000030: f9d4 96b7 45d7 6139 029f deb8 dafa 6038
00000040: 031d 02b9 a2c9 06b7 4e42 8639 6842 25b9
00000050: f504 96b8 8840 b738 5941 6037 e31f 0536
00000060: 02c2 28b9 f033 fb38 113c 4038 0719 4db9
00000070: 7833 84b8 09ba 0cb9 61e0 8db6 f656 e5b7
00000080: 3894 7d38 5fb0 ea38 0703 af38 782a 2eb8
00000090: 0453 ac39 df1f 1a39 051c f2b8 2bb9 5c39
000000a0: c2dc a5b7 e110 93b7 58a0 0539 016c 7bb8
000000b0: 3cea 0a38 356f 4db9 6aa6 91b9 706d a938
000000c0: ef85 ea37 2b75 2039 3504 8036 c754 7739
000000d0: 0b86 6b38 daea f6b8 9161 30b8 c9d4 8f39
000000e0: d60e 1e39 b18a f337 b767 d2b7 700d 6838
000000f0: 7642 1bb9 a814 1139 ff37 4e36 e540 10b9
00000100: 2d56 37b8 a92a 3339 a032 82b7 796c 49b8
00000110: ef2b 2b38 0931 f738 3edb 85b8 b902 1bb9
00000120: 0428 fa38 d6f9 1e39 b676 46b9 fc97 8538
00000130: 4a60 4039 06d2 48b8 3ba5 1eb9 4817 61b9
00000140: e87d 62b8 fd4e 09b9 6a99 7238 58a7 bf39
00000150: bf83 5e39 fb9a 4339 302c e8b8 1441 01b9
00000160: b597 81b9 152d 7e39 1440 b037 d0b2 6d39
00000170: c68b ce39 8a56 98b8 6451 3838 86f1 cb37
00000180: a678 5cb9 46da 82b7 3fc5 1139 9956 7bb9
00000190: e092 a7b9 940a a1b8 79d6 2d39 ea99 7db9
000001a0: e3cc 3839 868c 36b9 1922 01b9 141d fc38
000001b0: 847b fa37 ea5c 8eb8 aef1 41b9 523f 01b9
000001c0: 479f b637 1af0 1139 cc11 5339 382f c638
000001d0: e6dd 66b9 0021 eb38 fc96 c2b7 6223 3335
000001e0: 8d12 5239 82dc d438 fb4e bbb8 c13c c4b8
000001f0: db64 9eb9 0a00 7138 fc9a 8db8 f9ac 6739
00000200: aece 233b f47f 4abc eea7 c2bb 6543 1a3c
00000210: 5aec 57bc 8d53 2bbb 5c03 78bc d94c 1f3c
00000220: 3254 e2bb 897d 44bc 37e3 04bc 0c7a 003b
00000230: 6576 c1ba f935 90bc f89f eeba 031c d73b
00000240: 804c f0bb 9661 8d3c 6f0f 96bb aa22 13bc
00000250: 83ba 983a b16e 2cbc fe85 8abc fd52 8ebc
00000260: 5718 12bc 1280 67bc 4b43 433c fb2a 053c
00000270: 990e 94bc 33ab 90bc b54d 99bb 112f 5cbb
00000280: 2a74 f63c 3fcc 1abc c76e 41bc aef5 45bc
00000290: 0403 2cbc 6357 34bc 169f a13c 3dab cbbb
000002a0: cea6 a93b cd94 a83c 4ef9 733b 040d 9fbb
000002b0: 9c8b 7d39 8ff1 48bc f431 653b 7d19 da3a
000002c0: 6bce 013b c7f4 28bc 83e2 d9bb 7f2d 15bc
000002d0: 68ee 013b de3e 853c 7ffa 32bc 4dd2 a8bc
000002e0: ab2a db3a 3b16 c0bb 5b21 59bb aff5 67bb
000002f0: 0e84 9bbc 4a6c 5d3c 1cda 01bc 4535 653b

transformer_encoder.layers.0.self_attn.out_proj.weight f4 [64, 64]
-0.061581157 0.057857625 0.038588088 -0.11977288 0.025951793 0.0374473 -0.059436582 -0.035169743
-0.07472486 0.072455704 -0.007287036 0.0833361 -0.053658478 -0.121392615 -0.013242013 0.0786063
-0.06091144 0.08504312 0.07923127 -0.10984297 -0.11816366 -0.04795006 0.040280584 0.031933874
0.057091493 0.09117873 -0.0982083 -0.07397089 0.027543945 0.02428217 -0.09112819 0.000481856
-0.062475655 -0.012829793 -0.085861735 0.06279129 -0.06424609 0.08201678 0.060021624 0.11767571
0.103087105 0.022152351 0.10634381 -0.04609078 -0.08665412 0.047529235 0.018591784 0.062363304
-0.01828587 -0.053516746 -0.12352831 0.06461174 0.05609208 0.029240591 -0.008623599 -0.09607769
-0.067550935 0.06220228 -0.06134133 0.10020565 0.08896576 -0.10443679 0.051105633 -0.06809284
0.077761725 -0.08150281 -0.063159905 -0.039155632 0.081471756 0.07846637 -0.0074853217 0.02889815
0.06609898 -0.08069625 -0.085050724 -0.09711639 -0.044121448 0.052799523 -0.043237746 0.039130062
-0.019950403 0.059983607 0.029648865 0.060208675 -0.05129726 0.120431796 0.050395116 -0.11270575
0.0043576066 0.043602504 0.13072203 -0.083258584 0.03596604 0.098365955 0.03790107 -7.9979705e-05
-0.001816715 -0.019029712 -0.07774153 0.096276864 0.07743087 -0.051099986 -0.0675501 0.08664046
0.10049117 0.0056921947 -0.09851298 -0.00047250866 -0.07172119 0.039201487 -0.048889916 -0.017706377
-0.025574856 0.09476592 0.029773366 -0.07826797 0.112516694 -0.096099116 -0.05563664 0.059099168
-0.057572186 0.01958825 -0.067412324 0.15824807 -0.1032593 0.069595605 -0.016601738 0.0672694
-0.0056862747 -0.058919832 -0.056918968 -0.0058633843 -0.00022672139 0.036180355 -0.062900625 -0.108495764
0.054126162 0.09148416 0.13146594 0.04742877 0.033421557 0.07124236 -0.043879822 0.039251193
0.035802968 -0.010543754 -0.027690174 0.09099217 0.08020725 0.03903167 -0.07498566 -0.10349035
-0.026445933 0.04333735 -0.0989913 -0.045319565 0.022478301 -0.051444262 0.049327232 -0.07896855
-0.08805888 0.09399563 0.103155375 -0.036022875 -0.028365549 -0.045205038 0.030151196 -0.04963604
-0.11189349 0.0037036533 -0.055249006 0.028422229 0.09459085 0.064102374 -0.0017625174 -0.045065716
-0.09796665 -0.093853466 -0.09252089 -0.06629151 -0.023860525 -0.013194542 0.067611955 -0.020451589
-0.088293426 0.08943135 0.0482565 0.028009744 -0.0104056345 -0.038149636 0.082222864 0.042431712
0.10866208 0.013661526 0.02047735 -0.004205343 -0.06632563 -0.029469667 -0.07886392 0.1344755
0.05755425 -0.059767835 0.07118611 -0.059937485 0.070184626 0.03171495 0.09316249 -0.036008485
-0.050677646 -0.06029223 0.07440885 -0.061981287 0.109575935 0.090454236 0.015754167 -0.12079701
0.06443278 0.065026276 0.10798298 0.06084485 -0.05589942 0.14191462 -0.0986752 0.16021413
0.00393854 -0.11944096 -0.09141795 0.015107646 0.06654747 -0.029215362 -0.123911515 0.040452052
0.11587016 0.13037008 -0.019029686 -0.13132392 0.04331193 -0.04836528 -0.08946656 0.10070892
0.048993178 -0.11054999 0.034809045 -0.09878132 -0.0037863965 -0.018671112 -0.07424096 0.03545695
0.07813075 0.12369104 -0.011561149 -0.005893395 -0.049338024 -0.03874953 -0.034237448 -0.11066443
00000000: 863c 7cbd 1efc 6c3d 8b0e 1e3d 7c4b f5bd
00000010: db98 d43c 5762 193d c673 73bd 260e 10bd
00000020: 5909 99bd a863 943d 17c8 eebb 1eac aa3d
00000030: fec8 5bbd b19c f8bd 07f5 58bc 57fc a03d
00000040: 467e 79bd 162b ae3d 0144 a23d 5af5 e0bd
00000050: caff f1bd 4867 44bd 41fd 243d 18cd 023d
00000060: c5d8 693d eabb ba3d 6f21 c9bd 0d7e 97bd
00000070: d7a3 e13c 67eb c63c 6ba1 babd 9ea1 fc39
00000080: 79e6 7fbd 0d34 52bc 47d8 afbd b898 803d
00000090: 7493 83bd 6af8 a73d 3cd9 753d f6ff f03d
000000a0: 551f d33d d978 b53c c9ca d93d b0c9 3cbd
000000b0: b777 b1bd 04ae 423d cc4d 983c aa70 7f3d
000000c0: 40cc 95bc 6034 5bbd 69fc fcbd 2953 843d
000000d0: cfc0 653d f789 ef3c ff49 0dbc 61c4 c4bd
000000e0: 2558 8abd d1c7 7e3d 0c41 7bbd 9f38 cd3d
000000f0: ae33 b63d f5e2 d5bd 2454 513d 4274 8bbd
00000100: 8a41 9f3d f2ea a6bd fb59 81bd a861 20bd
00000110: aada a63d fab2 a03d 6e47 f5bb d0bb ec3c
00000120: e75e 873d 1344 a5bd 132f aebd f5e4 c6bd
00000130: b1b8 34bd 5044 583d 101a 31bd d846 203d
00000140: 076f a3bc 5fb1 753d 2de2 f23c 5f9d 763d
00000150: 131d 52bd f2a4 f63d 1c6b 4e3d 46d2 e6bd
00000160: 41ca 8e3b 8a98 323d ffdb 053e 7a83 aabd
00000170: 2051 133d 1774 c93d 273e 1b3d c7ba a7b8
00000180: d71e eeba 33e4 9bbc f436 9fbd ce2c c53d
00000190: 1394 9e3d 384e 51bd b557 8abd 8e70 b13d
000001a0: 51ce cd3d 9785 ba3b 2cc1 c9bd 0abb f7b9
000001b0: 8fe2 92bd bd91 203d cb40 48bd f70c 91bc
000001c0: 5c82 d1bc a214 c23d 46e7 f33c f54a a0bd
000001d0: 276f e63d 9dcf c4bd 3fe3 63bd f811 723d
000001e0: d0d0 6bbd 8a77 a03c 790f 8abd c80b 223e
000001f0: 9d79 d3bd 2488 8e3d 5e00 88bc 8ac4 893d
00000200: ee53 babb ec55 71bd dd23 69bd a221 c0bb
00000210: 0fbc 6db9 da31 143d 0bd2 80bd 0733 debd
00000220: 65b3 5d3d 0c5c bb3d 029f 063e ac44 423d
00000230: 0be5 083d 84e7 913d 54bb 33bd dcc5 203d
00000240: 22a6 123d b6bf 2cbc 81d6 e2bc 1a5a ba3d
00000250: b343 a43d acdf 1f3d 1592 99bd c0f2 d3bd
00000260: 24a5 d8bc 8182 313d f3bb cabd 02a1 39bd
00000270: 6a24 b83c 38b7 52bd 5a0b 4a3d 43ba a1bd
00000280: 3758 b4bd c880 c03d 2043 d33d b98c 13bd
00000290: de5e e8bc eb28 39bd a4ff f63c 294f 4bbd
000002a0: 6a28 e5bd feb8 723b c84c 62bd bcd5 e83c
000002b0: d9b8 c13d 1b48 833d 4504 e7ba d496 38bd
000002c0: bda2 c8bd 3f36 c0bd 987b bdbd d8c3 87bd
000002d0: 2677 c3bc ec2d 58bc 2378 8a3d 178a a7bc
000002e0: 2fd3 b4bd c927 b73d 9ca8 453d b174 e53c
000002f0: 657c 2abc cb42 1cbd 7664 a83d e0cc 2d3d
00000300: 398a de3d 98d4 5f3c 1ec0 a73c f9cc 89bb
00000310: bbd5 87bd 5f6a f1bc 6883 a1bd f2b3 093e
00000320: 01be 6b3d 1ecf 74bd 06ca 913d 0281 75bd
00000330: f5bc 8f3d 89e7 013d facb be3d a27d 13bd
00000340: 5d93 4fbd fcf4 76bd ab63 983d 17e0 7dbd
00000350: 5969 e03d 1240 b93d e20e 813c 6c64 f7bd
00000360: 55f5 833d 7f2c 853d 2e26 dd3d 7338 793d
00000370: caf6 64bd 1152 113e 3916 cabd 2c0f 243e
00000380: de0e 813b 769d f4bd 5639 bbbd 0f86 773c
00000390: 0a4a 883d 0e55 efbc 52c5 fdbd 0db1 253d
000003a0: 564d ed3d bc7f 053e 25e4 9bbc c779 06be
000003b0: da67 313d ac1a 46bd 3e3a b7bd 7a40 ce3d
000003c0: 12ad 483d 0868 e2bd ee93 0e3d dc4d cabd
000003d0: 3125 78bb 29f4 98bc a50b 98bd 4f3b 113d
000003e0: 0403 a03d ba51 fd3d f96a 3dbc 611d c1bb
000003f0: ab16 4abd d4b7 1ebd 913c 0cbd 08a4 e2bd

transformer_encoder.layers.0.self_attn.out_proj.bias f4 [64]
0.0103174355 -0.0072494703 0.001783206 -0.0017296462 0.001257673 -0.003415127 0.014281949 -0.0046426407
0.019766124 -0.0019552268 -0.012756982 0.026426082 0.0068015032 -0.020771118 0.0006552016 0.018392684
-0.0066991397 0.01056044 -0.007138928 -0.008442339 -0.0021895755 -0.016042184 -0.005794462 -0.005299725
-0.0054265996 6.536178e-05 -0.0028921468 -0.0063293483 -0.005977103 0.0069216536 -0.007508312 0.00015572252
0.0007290675 0.0078742 0.0019279633 -0.011392201 0.010574315 0.008667994 -0.0007444643 0.0004955318
0.0035588262 0.0060357205 -0.004036732 -0.018458147 -0.008598913 0.0049874415 0.0018934293 -0.011344762
0.0018716643 0.004297287 0.0013013129 -0.008743958 0.0056829005 -0.008197818 -0.0029164234 0.009126752
-0.004411201 0.003991929 0.008135638 0.004753512 0.004886695 0.0044310433 0.0129441125 -0.00034124337
00000000: 760a 293c f78c edbb 77ba e93a 4cb5 e2ba
00000010: 81d8 a43a 53d0 5fbb d6fe 693c 4b21 98bb
00000020: 91ec a13c 4323 00bb a902 51bc 837b d83c
00000030: 25df de3b 3128 aabc d6c1 2b3a 41ac 963c
00000040: 7584 dbbb b205 2d3c abed e9bb bc51 0abc
00000050: fb7e 0fbb e66a 83bc 78df bdbb 51a9 adbb
00000060: 9ed1 b1bb d712 8938 2c8a 3dbb 6c66 cfbb
00000070: 93db c3bb 0acf e23b 4908 f6bb 7249 2339
00000080: e41e 3f3a ca02 013c b7b3 fc3a 5ba6 3abc
00000090: e43f 2d3c 3404 0e3c 2728 43ba 94e6 013a
000000a0: 323b 693b 4bc7 c53b 9046 84bb 8a35 97bc
000000b0: 75e2 0cbc b16d a33b f22c f83a 61df 39bc
000000c0: a252 f53a 42d0 8c3b d190 aa3a d142 0fbc
000000d0: a037 ba3b 2450 06bc 7721 3fbb 5f88 153c
000000e0: d68b 90bb bace 823b 574b 053c 59c3 9b3b
000000f0: 9220 a03b 4932 913b 8b13 543c e9e8 b2b9

transformer_encoder.layers.0.linear1.weight f4 [256, 64]
-0.08769978 0.09657823 0.025927188 -0.011752659 0.10340334 0.048139963 -0.030253623 -0.06156715
0.011650084 -0.033492528 -0.0034374371 -0.101854324 0.03065348 0.07423241 -0.03011964 -0.044175357
0.008412289 -0.0053082113 0.07009265 0.05260299 -0.06966957 0.019499196 -0.0958507 -0.13188086
0.16166835 0.12620167 0.095056795 0.054993574 0.049592465 -0.04610338 0.09434422 -0.047640294
0.103070244 0.08074802 -0.001088481 -0.016215067 0.02916747 -0.09382692 -0.06723563 0.07568927
0.021620406 0.14695987 -0.14462334 -0.11818511 -0.08734436 -0.060327698 0.043905113 -0.030083403
0.105340384 -0.042835094 -0.012185608 0.045737952 -0.06599874 0.05319423 0.09055304 -0.069625124
0.12469822 0.060539752 -0.13513106 -0.042479012 -0.036649566 -0.03210179 -0.053884745 -0.025651684
-0.0129792625 -0.0045509688 0.06297389 0.09502461 0.116146445 -0.13670085 -0.13853365 -0.015864342
-0.015827896 0.015037808 0.08190024 -0.057297815 0.13272862 -0.08586474 0.08033142 0.09516019
-0.10734764 0.053783316 0.06118458 0.06846375 -0.056184717 0.044549882 -0.0315823 -0.085039
-0.07048755 0.0012130263 -0.08630869 0.058197983 0.074618064 -0.04408683 -0.12504847 0.047374997
-0.04181613 0.1029512 0.030462038 -0.05105683 -0.07354719 0.057943963 0.051172107 0.04823678
0.026415871 -0.07690339 -0.04378725 0.09496536 0.051941156 0.028648805 -0.02566072 -0.02682645
-0.022302995 -0.04833135 0.029673964 0.07360706 -0.0934314 0.039510038 0.0010192553 -0.02899093
-0.09608769 0.072673954 0.004603718 -0.091640465 0.1258104 0.07070752 -0.07450168 -0.017139705
-0.0018789415 0.047013596 0.13828696 -0.06878026 0.05358191 -0.14153711 -0.0655342 -0.041773155
-0.059009034 -0.06146056 0.07953238 -0.09806868 0.018148053 0.021531671 -0.016866975 0.028029358
0.08745501 -0.15036468 0.0055213403 0.027600208 0.12241001 -0.091778226 0.11473525 0.095351264
0.10926746 -0.11989147 0.012876016 -0.09763638 0.074746475 0.053956848 -0.06812376 -0.01855244
-0.05978772 -0.019457342 -0.06987669 0.062027335 -0.08916232 -0.04991279 -0.025317345 0.01582789
-0.08548792 -0.060452778 0.09725141 0.010465192 0.05149268 0.023915337 0.058401477 -0.023588499
0.01295351 -0.12250202 0.06232326 -0.004208556 -0.08185551 0.06339959 0.07875681 0.0030984504
0.116369724 -0.05288188 -0.06794163 -0.10501056 -0.0063858144 -0.102130786 0.058629055 0.106747575
-0.099303566 0.14129798 0.022629155 -0.024778012 0.03995035 0.13998693 0.14509337 0.07915597
0.036652334 -0.013159245 -0.07468499 -0.032735746 -0.12923086 0.023584463 0.13207392 0.04713293
-0.09223543 -0.051913187 0.07936272 -0.043787397 0.06175645 0.109396644 0.097472966 0.033381775
0.15816204 -0.005091415 0.14117505 -0.048770417 -0.04030332 -0.09053305 -0.098166466 0.078169264
0.010179839 0.10530901 0.04343629 -0.12702188 0.14430295 0.14464179 -0.13577022 -0.14357747
-0.024992058 0.10347005 0.08555179 0.07223255 0.12440928 -0.13837081 -0.0559777 0.027933741
0.0144137805 -0.0031341314 0.010846494 -0.14320035 0.05720984 -0.073043756 0.038093574 -0.0720735
0.081792966 0.045976475 -0.061942603 -0.08236568 -0.013302738 0.056333713 0.0064797173 -0.059358165
00000000: f19b b3bd cfca c53d 4165 d43c 3a8e 40bc
00000010: 21c5 d33d 692e 453d 72d6 f7bc d62d 7cbd
00000020: fedf 3e3c 762f 09bd a046 61bb 0099 d0bd
00000030: 021d fb3c 2907 983d 77bd f6bc 38f1 34bd
00000040: b3d3 093c 81f0 adbb bc8c 8f3d 3c76 573d
00000050: ebae 8ebd c7bc 9f3c 5f4d c4bd c70b 07be
00000060: 638c 253e 033b 013e 23ad c23d f140 613d
00000070: 7821 4b3d e6d6 3cbd 8b37 c13d 7822 43bd
00000080: 7e16 d33d 385f a53d 5dab 8eba 76d5 84bc
00000090: 9ef0 ee3c 5428 c0bd d5b2 89bd fa02 9b3d
000000a0: 471d b13c a67c 163e 2418 14be 090b f2bd
000000b0: 9ae1 b2bd 2d1a 77bd d9d5 333d 7871 f6bc
000000c0: b3bc d73d da73 2fbd 25a6 47bc b857 3b3d
000000d0: 592a 87bd 31e2 593d df73 b93d 9e97 8ebd
000000e0: c861 ff3d 88f8 773d cc5f 0abe 79fe 2dbd
000000f0: db1d 16bd 2b7d 03bd 40b6 5cbd 7b23 d2bc
00000100: f9a6 54bc 4b20 95bb 74f8 803d 439c c23d
00000110: 30de ed3d 4ffb 0bbe c4db 0dbe f0f5 81bc
00000120: 81a9 81bc 2361 763c 50bb a73d 1db1 6abd
00000130: 03ea 073e dad9 afbd cd84 a43d 58e3 c23d
00000140: 14d9 dbbd e54b 5c3d af9c 7a3d b936 8c3d
00000150: f221 66bd f079 363d 715c 01bd ed28 aebd
00000160: c75b 90bd 69fe 9e3a 9cc2 b0bd 0261 6e3d
00000170: 5bd1 983d 6494 34bd b50c 00be 490c 423d
00000180: 6447 2bbd 14d8 d23d 868b f93c f720 51bd
00000190: e99f 96bd a656 6d3d d899 513d ee93 453d
000001a0: 1966 d83c 867f 9dbd 425a 33bd 337d c23d
000001b0: 40c0 543d e6b0 ea3c 6e36 d2bc 25c3 dbbc
000001c0: c5b4 b6bc 18f7 45bd d016 f33c 4cbf 963d
000001d0: f658 bfbd 47d5 213d 8898 853a 637e edbc
000001e0: 9fc9 c4bd 15d6 943d c9da 963b ffad bbbd
000001f0: 71d4 003e 1bcf 903d 5694 98bd 9168 8cbc
00000200: d146 f6ba 5491 403d 199b 0d3e aadc 8cbd
00000210: b478 5b3d 1bef 10be cb36 86bd 541a 2bbd
00000220: 75b3 71bd 11be 7bbd dfe1 a23d 3bd8 c8bd
00000230: 3aab 943c 3063 b03c 9c2c 8abc d39d e53c
00000240: 9d1b b33d 33f9 19be 5cec b43b d519 e23c
00000250: 19b2 fa3d 39f6 bbbd 51fa ea3d 8647 c33d
00000260: 9ec7 df3d a989 f5bd edf5 523c 95f5 c7bd
00000270: ae14 993d db01 5d3d 7884 8bbd 49fb 97bc
00000280: f8e3 74bd 0165 9fbc 831b 8fbd 6010 7e3d
00000290: bc9a b6bd 5b71 4cbd 5266 cfbc 7ea9 813c
000002a0: 4a14 afbd 559d 77bd bf2b c73d 3276 2b3c
000002b0: fde9 523d 19ea c33c 6336 6f3d ab3c c1bc
000002c0: f53a 543c 57e2 fabd ad46 7f3d ede7 89bb
000002d0: dda3 a7bd a5d7 813d 404b a13d 5f0f 4b3b
000002e0: 4053 ee3d ac9a 58bd fb24 8bbd c70f d7bd
000002f0: 1840 d1bb f229 d1bd 0525 703d 799e da3d
00000300: ab5f cbbd 6bb0 103e c760 b93c 42fb cabc
00000310: faa2 233d bc58 0f3e 5b93 143e 861c a23d
00000320: c220 163d e099 57bc 72f4 98bd eb15 06bd
00000330: 1855 04be 3434 c13c 633e 073e 760e 413d
00000340: eee5 bcbd eca2 54bd ec88 a23d 6a5a 33bd
00000350: 55f4 7c3d 590b e03d e89f c73d 54bb 083d
00000360: 3bf5 213e e2d5 a6bb 3190 103e 7dc3 47bd
00000370: 1815 25bd 6469 b9bd 800b c9bd 3517 a03d
00000380: 57c9 263c 40ac d73d 40ea 313d 0612 02be
00000390: 27c4 133e fa1c 143e 5907 0bbe f905 13be
000003a0: 25bc ccbc 1be8 d33d c735 af3d a9ee 933d
000003b0: 4bca fe3d 14b1 0dbe df48 65bd 4dd5 e43c
000003c0: c727 6c3c 0066 4dbb 7eb5 313c 1da3 12be
000003d0: dd54 6a3d f797 95bd 0208 1c3d 459b 93bd
000003e0: 1283 a73d d451 3c3d 87b7 7dbd 56af a8bd
000003f0: baf3 59bc 2ebe 663d cf53 d43b 8c21 73bd

transformer_encoder.layers.0.linear1.bias f4 [256]
0.049259108 -0.10059622 -0.026900437 0.06842443 -0.00613139 -0.13353722 -0.04313656 0.02773786
-0.09306933 -0.10828149 -0.02853647 -0.009763933 -0.09293954 -0.08315344 0.021701418 -0.07835423
-0.028356161 -0.10635696 0.07102774 0.018098155 -0.11959753 0.080396384 0.03085373 0.06906855
-0.05711774 0.10117401 -0.08751624 0.036298648 -0.01337635 0.020500353 -0.045614768 -0.0676323
-0.10465822 -0.07657837 0.04541741 0.104430996 -0.06981834 0.06402408 -0.11763142 0.06883252
-0.15305077 -0.049668346 -0.09912568 0.051250115 -0.035122618 -0.13085213 -0.00763786 -0.0033051101
-0.021270122 -0.02709687 -0.057312608 0.10729628 0.00934288 0.057168692 -0.00750627 -0.037853315
0.058917034 -0.056167625 -0.07713073 -0.080793254 -0.021943565 0.09317188 -0.015272918 0.0688396
0.033572797 0.04350692 -0.05552793 0.054634653 -0.050220747 0.06619503 0.013109055 0.08620842
0.09083229 -0.12896232 0.08570829 -0.040903453 -0.022441885 0.007857342 0.0050758403 -0.07609231
0.10309712 0.110576876 0.106093496 -0.06765301 -0.008417879 0.113730945 -0.05419158 -0.04413806
-0.10843428 -0.043501783 -0.015037717 -0.0436902 -0.00817176 0.0361634 0.09345067 -0.0021043394
-0.030239921 -0.091105394 -0.0466955 0.058569144 0.089893185 -0.06727883 0.090832025 -0.05760652
0.05430082 -0.08242887 -0.107407935 0.01443665 -0.019071277 -0.06244217 -0.10670857 -0.048604153
-0.11564789 0.070678286 0.09365051 -0.04537704 0.013109899 0.050182693 0.029611409 0.03617317
-0.029665383 -0.05115843 -0.10483477 0.08811293 -0.016523775 -0.047620125 0.03173124 0.10554384
0.010400228 0.07011568 0.07340311 0.07906583 0.038647182 -0.060334638 -0.05500499 -0.03340907
-0.0020444947 0.09559622 -0.010567288 0.004020871 0.033171505 -0.12834369 -0.0689671 -0.028078482
-0.1096502 0.06163941 -0.06552969 -0.0023172845 -0.08527257 -0.055160947 0.00058815326 0.0611254
-0.013582503 -0.05312899 0.08310282 0.10800145 -0.05939091 0.11481633 -0.05650342 -0.022643901
0.1023005 -0.10756168 0.09447558 0.0925325 0.03510028 0.0078379335 -0.06802979 0.10384533
-0.11005297 0.10108882 0.058082186 -0.030155161 -0.03734706 0.035930157 -0.06675823 -0.13809386
-0.07817676 0.010318322 0.119132556 0.11580321 -0.061435424 0.06268053 -0.11813261 -0.113554925
-0.15012798 -0.11225597 0.0012803158 -0.1404025 -0.13037147 0.02121336 0.04267832 -0.0076684346
0.07753256 -0.06785567 -0.1369137 0.033134446 -0.01764981 0.04531698 0.076757565 -0.07751211
-0.0432798 -0.06764693 -0.06503647 -0.11597572 -0.0007985566 -0.09499888 -0.058557738 -0.03627031
-0.056114238 -0.105375335 0.07579811 -0.07300782 0.052507788 -0.11346234 -0.046868462 -0.08656786
-0.04961363 0.053549934 -0.080736324 0.118365236 0.012950594 0.011694738 -0.0005451773 0.06539762
0.078646876 -0.0071759075 0.049377285 -0.07538507 0.015754538 -0.04454546 0.09279186 0.0048244405
0.089295335 0.09300608 -0.05548682 0.06413119 -0.027944604 0.09238217 -0.007265935 0.024675557
-0.12635724 -0.0786772 -0.08055814 -0.115301535 0.10396343 -0.028536985 -0.10990856 -0.058790207
0.05437791 0.11211353 -0.116072014 -0.0062069115 -0.0137953125 -0.07174967 0.0110529885 -0.01342038
00000000: ebc3 493d 6405 cebd 4e5e dcbc 1c22 8c3d
00000010: d4e9 c8bb fbbd 08be f6af 30bd 823a e33c
00000020: 229b bebd b0c2 ddbd 51c5 e9bc e7f8 1fbc
00000030: 1657 bebd 5a4c aabd 2cc7 b13c 2f78 a0bd
00000040: 2e4b e8bc aed1 d9bd fe76 913d 9542 943c
00000050: 8def f4bd dca6 a43d f6c0 fc3c d073 8d3d
00000060: 4bf4 69bd 5234 cf3d b73b b3bd e4ad 143d
00000070: 7a28 5bbc 5bf0 a73c 8dd6 3abd ce82 8abd
00000080: 0d57 d6bd 1fd5 9cbd 9b07 3a3d ebdf d53d
00000090: ebfc 8ebd 0f1f 833d bee8 f0bd 10f8 8c3d
000000a0: 57b9 1cbe 0971 4bbd 6802 cbbd a4eb 513d
000000b0: bcdc 0fbd 1afe 05be 0347 fabb 8c9a 58bb
000000c0: ae3e aebc 41fa ddbc a0c0 6abd 27be db3d
000000d0: e112 193c b829 6a3d 28f7 f5bb 140c 1bbd
000000e0: fd52 713d 0610 66bd b7f6 9dbd ef76 a5bd
000000f0: fec2 b3bc e6d0 be3d 433b 7abc c7fb 8c3d
00000100: a183 093d 5034 323d 4171 63bd 96c8 5f3d
00000110: 45b4 4dbd 4391 873d 5dc7 563c 0a8e b03d
00000120: 4806 ba3d b30e 04be d487 af3d 618a 27bd
00000130: 0bd8 b7bc 15bc 003c 3c53 a63b 49d6 9bbd
00000140: 9524 d33d 2176 e23d 8c47 d93d a98d 8abd
00000150: 25eb 09bc c5eb e83d fdf7 5dbd 1cca 34bd
00000160: cb12 debd ed2e 32bd c260 76bc 7ff4 32bd
00000170: d8e2 05bc 1320 143d 1163 bf3d f5e8 09bb
00000180: b6b9 f7bc 7795 babd c843 3fbd 33e6 6f3d
00000190: eb19 b83d 7cc9 89bd 2406 ba3d d0f4 6bbd
000001a0: 896a 5e3d 78d0 a8bd b1f8 dbbd b387 6c3c
000001b0: 5e3b 9cbc 5cc3 7fbd 068a dabd 2615 47bd
000001c0: cdd8 ecbd c7bf 903d d7cb bf3d 46dd 39bd
000001d0: e7ca 563c 5e8c 4d3d a093 f23c 512a 143d
000001e0: d104 f3bc 808b 51bd 9db3 d6bd 8d74 b43d
000001f0: de5c 87bc 520d 43bd 9ef8 013d 5e27 d83d
00000200: b865 2a3c cf98 8f3d 5f54 963d 44ed a13d
00000210: 824c 1e3d 7421 77bd ea4c 61bd f3d7 08bd
00000220: eefc 05bb f3c7 c33d 6b22 2dbc 83c1 833b
00000230: d8de 073d 876c 03be 9f3e 8dbd d804 e6bc
00000240: 4990 e0bd 9b79 7c3d 6e34 86bd 95dd 17bb
00000250: 63a3 aebd 72f0 61bd 4c2e 1a3a a15e 7a3d
00000260: 2689 5ebc c99d 59bd d031 aa3d dd2f dd3d
00000270: e243 73bd d324 eb3d 2170 67bd b47f b9bc
00000280: ed82 d13d 4c49 dcbd 6a7c c13d ae81 bd3d
00000290: 50c5 0f3d ad6a 003c 3453 8bbd dcac d43d
000002a0: 7463 e1bd a807 cf3d 96e7 6d3d f507 f7bc
000002b0: 3bf9 18bd 802b 133d 8ab8 88bd 7a68 0dbe
000002c0: 231b a0bd 2e0e 293c c5fb f33d 3c2a ed3d
000002d0: b6a3 7bbd a65e 803d 83ef f1bd 7c8f e8bd
000002e0: 26bb 19be 75e6 e5bd 45d0 a73a acc5 0fbe
000002f0: 1980 05be a4c7 ad3c 76cf 2e3d 7e47 fbbb
00000300: 64c9 9e3d eaf7 8abd 1b33 0cbe fcb7 073d
00000310: 5696 90bc 4c9e 393d 1233 9d3d abbe 9ebd
00000320: 2946 31bd 798a 8abd d731 85bd ae84 edbd
00000330: 3a56 51ba c68e c2bd 3dda 6fbd 2d90 14bd
00000340: 0bd8 65bd 06cf d7bd 0a3c 9b3d 2085 95bd
00000350: 6812 573d f15e e8bd 25f9 3fbd 7d4a b1bd
00000360: a937 4bbd 2d57 5b3d 1659 a5bd 7969 f23d
00000370: ba2e 543c 499b 3f3c 3bea 0eba 30ef 853d
00000380: 9d11 a13d e023 ebbb d63f 4a3d 7d63 9abd
00000390: a90f 813c 4d75 36bd a909 be3d 5716 9e3b
000003a0: 79e0 b63d f979 be3d 2646 63bd 3757 833d
000003b0: 15ec e4bc dd32 bd3d 1517 eebb 6524 ca3c
000003c0: cb63 01be 8321 a1bd abfb a4bd 3623 ecbd
000003d0: c7ea d43d 65c6 e9bc bd17 e1bd 00ce 70bd
000003e0: 5fbb 5e3d c79b e53d 2ab7 edbd 5963 cbbb
000003f0: bc05 62bc 7ef1 92bd 9817 353c 27e1 5bbc

transformer_encoder.layers.0.linear2.weight f4 [64, 256]
0.07320848 0.044708062 -0.07721311 0.039936744 -0.05251241 0.047408387 -0.06990404 -0.036351714
-0.015546323 -0.028661076 -0.04521359 0.046038166 0.05963301 -0.030732095 -0.062668964 0.05605128
-0.056391604 0.012381193 0.01145937 -0.015708229 -0.016007662 0.015218276 0.040946312 -0.067269824
0.02532187 0.029457243 0.06635062 -0.05850102 -0.027847907 0.01827317 -0.024955668 -0.025919603
0.028330054 0.037030667 0.027932238 0.017637141 -0.051188793 -0.016817449 -0.039945967 0.037528466
-0.016188474 -0.031167923 -0.054031298 -0.02747906 -0.027223568 0.01107051 0.059488945 -0.021698775
0.0019417974 -0.013753709 0.008323556 -0.017680377 0.023479113 0.07785609 0.056287568 0.04074505
-0.04420111 -0.013715794 0.017413922 0.0778213 -0.036896057 -0.0642811 0.01621415 0.029526215
0.042082936 0.005815522 0.034824975 -0.050519306 0.0033550016 0.021838447 -0.00033315842 0.07000589
0.02259406 0.03653888 0.026741138 0.01905835 0.08131637 0.027006125 -0.06396696 0.016014205
-0.048610575 -0.035586443 -0.017924476 0.0036447074 0.039877556 -0.0071717394 -0.018875133 0.1002854
0.0084572295 0.052879266 -0.03024751 -0.014072369 -0.039604545 0.039926678 -0.030517362 0.01308235
0.026912903 0.014695697 0.08755334 0.060945526 -0.020354992 0.073241465 -0.009993958 0.026934452
-0.028291585 -0.046533126 0.01049049 0.032996673 0.04177245 0.05832813 -0.09297236 -0.01289678
-0.009452149 0.06908477 0.0021242918 0.061964244 -0.03534773 -0.037417114 0.025715044 -0.060648803
-0.036550377 0.009896571 -0.026794925 0.069967 0.047970813 0.033135843 -0.03275672 0.03640906
-0.047220737 -0.0036311988 0.005048431 -0.055438887 -0.040011548 -0.018760825 0.070944995 -0.051517975
0.11135852 0.0098195635 -0.028179282 0.01851495 0.037435908 0.011565417 -0.004202846 0.059301905
-0.041067865 0.05711656 0.04413652 -0.027651722 -0.02420616 -0.097111106 -0.025926678 0.05158012
-0.00085349975 -0.0683359 0.07352025 -0.028221644 -0.10943619 -0.037239008 0.063785285 0.024249742
0.02293413 -0.01690908 0.0013469734 -0.014428415 -0.07181806 0.033832703 -0.025889665 -0.0050923284
-0.07506461 -0.06630357 0.0037326978 0.041301236 0.006909347 -0.021739814 0.0412423 -0.04542461
-0.056811 -0.02981667 -0.078559 0.04328854 0.0038795674 -0.029016403 0.072110236 0.039797567
0.007879435 -0.011735823 0.017417956 -0.008755951 0.060850468 0.05758592 -0.03986614 -0.06947793
0.00410117 0.051268388 0.060155433 0.023312803 -0.047680765 0.02996108 0.011703636 -0.020568434
0.047064595 -0.035374496 -0.047694318 0.010718021 -0.019312404 -0.047184117 0.057975713 0.051641
-0.035857614 -0.0064999675 0.07188034 0.07102089 -0.061110295 0.05265975 0.017459357 -0.022120541
-0.08572703 -0.04728366 -0.056041457 -0.08508663 0.02744189 0.036127876 0.029113403 0.0600375
0.0832311 0.0133901695 0.022344632 -0.0154414065 0.04595698 0.06905978 -0.0024386467 0.009592968
-0.02371437 0.048616152 -0.001695169 -0.024260856 -0.0020443096 0.058915608 -0.008859614 0.0033297087
-0.028225625 -0.052827045 -0.02760677 -0.011448166 0.028841032 0.06824378 -0.020948222 -0.0036131865
0.0046996768 -0.03590401 0.053465966 0.015097332 0.029324837 0.03794029 0.07346204 -0.027124735
00000000: 54ee 953d cd1f 373d e821 9ebd b694 233d
00000010: 4117 57bd 4c2f 423d d929 8fbd 89e5 14bd
00000020: 01b6 7ebc a2ca eabc e331 39bd 8492 3c3d
00000030: be41 743d e0c1 fbbc 9658 80bd 0796 653d
00000040: e2fa 66bd 7dda 4a3c 15c0 3b3c 8bae 80bc
00000050: 8022 83bc 1356 793c 52b7 273d c3c4 89bd
00000060: cf6f cf3c 5150 f13c d5e2 873d c49e 6fbd
00000070: 4b21 e4bc 9db1 953c d46f ccbc 5955 d4bc
00000080: 6e14 e83c 78ad 173d 26d2 e43c c47b 903c
00000090: 57ab 51bd bfc4 89bc 629e 23bd 73b7 193d
000000a0: b19d 84bc df53 ffbc ec4f 5dbd c41b e1bc
000000b0: f603 dfbc 1661 353c aeaa 733d a1c1 b1bc
000000c0: e983 fe3a 3d57 61bc 865f 083c 70d6 90bc
000000d0: 4557 c03c 0473 9f3d cb8d 663d 48e4 263d
000000e0: 390c 35bd 36b8 60bc a4a7 8e3c c660 9f3d
000000f0: 5220 17bd cfa5 83bd 89d3 843c f6e0 f13c
00000100: 285f 2c3d 2290 be3b a2a4 0e3d 55ed 4ebd
00000110: 96df 5b3b 8be6 b23c c4ab aeb9 405f 8f3d
00000120: 2e17 b93c cba9 153d 3b10 db3c 4220 9c3c
00000130: 3289 a63d f33b dd3c 1c01 83bd 3930 833c
00000140: e21b 47bd 17c3 11bd 5ad6 92bc 0bdc 6e3b
00000150: a656 233d e900 ebbb 06a0 9abc 6f62 cd3d
00000160: 3190 0a3c ee97 583d a0c9 f7bc cb8f 66bc
00000170: 6038 22bd 288a 233d 8cff f9bc 5a57 563c
00000180: 7378 dc3c 39c6 703c 2a4f b33d 04a2 793d
00000190: 83bf a6bc 9fff 953d b3bd 23bc a4a5 dc3c
000001a0: c1c3 e7bc 8599 3ebd 4ee0 2b3c 8527 073d
000001b0: 9719 2b3d 7ae9 6e3d 4b68 bebd 044d 53bc
000001c0: 30dd 1abc 517c 8d3d b437 0b3b 38ce 7d3d
000001d0: c8c8 10bd b042 19bd 5ba8 d23c e16a 78bd
000001e0: d9b5 15bd 3a25 223c 0881 dbbc dc4a 8f3d
000001f0: 0b7d 443d 73b9 073d e92b 06bd ab21 153d
00000200: 886a 41bd 68f9 6dbb 4f6d a53b e313 63bd
00000210: 26e3 23bd 4db0 99bc 9c4b 913d 8304 53bd
00000220: f00f e43d 3ce2 203c 3dd8 e6bc aaac 973c
00000230: 6556 193d e07c 3d3c 07b8 89bb 8ee6 723d
00000240: c736 28bd 0ef3 693d 7fc8 343d dd85 e2bc
00000250: ff4b c6bc 30e2 c6bd 2f64 d4bc ad45 533d
00000260: 66bd 5fba b1f3 8bbd c991 963d 1431 e7bc
00000270: 1520 e0bd ee87 18bd dca1 823d 65a7 c63c
00000280: 5be0 bb3c e984 8abc ed8c b03a 2965 6cbc
00000290: 5915 93bd 2994 0a3d 9016 d4bc 8cdd a6bb
000002a0: 79bb 99bd 2bca 87bd 47a0 743b 7c2b 293d
000002b0: ce67 e23b b217 b2bc b0ed 283d 280f 3abd
000002c0: a7b2 68bd 1742 f4bc 8ae3 a0bd 534f 313d
000002d0: 5740 7e3b cfb3 edbc 88ae 933d c602 233d
000002e0: bf18 013c 9c47 40bc 1ab0 8e3c 1f75 0fbc
000002f0: 573e 793d 37df 6b3d ad4a 23bd 724a 8ebd
00000300: 1c63 863b cdfe 513d 8b65 763d 7efa be3c
00000310: e84c 43bd f070 f53c 9bc0 3f3c 227f a8bc
00000320: cec6 403d d9e4 10bd 1e5b 43bd a39a 2f3c
00000330: 0c35 9ebc 2244 41bd f177 6d3d 8385 533d
00000340: 6fdf 12bd aefd d4bb 0036 933d 6673 913d
00000350: ca4e 7abd c0b1 573d ed06 8f3c 2336 b5bc
00000360: a791 afbd 83ac 41bd ba8b 65bd e641 aebd
00000370: d1cd e03c d3fa 133d 3b7f ee3c e2e9 753d
00000380: 1175 aa3d 7162 5b3c 170c b73c f4fd 7cbc
00000390: 633d 3c3d 376f 8d3d b4d1 1fbb d32b 1d3c
000003a0: a344 c2bc bb21 473d 6f30 deba b4be c6bc
000003b0: d3f9 05bb 7e51 713d ea27 11bc 3e37 5a3b
000003c0: 6d39 e7bc 2c61 58bd 9827 e2bc 1791 3bbc
000003d0: 0744 ec3c 65c3 8b3d 9b9b abbc 36cb 6cbb
000003e0: bfff 993b 1510 13bd 21ff 5a3d cd5a 773c
000003f0: a43a f03c 4767 1b3d 4473 963d b134 debc

transformer_encoder.layers.0.linear2.bias f4 [64]
-0.027659098 0.0011565909 0.022026272 -0.04661814 -0.03228234 0.04411006 -0.03970707 -0.0029199258
-0.004902619 -0.013958364 0.036075376 -0.035227664 -0.042955678 -0.042075302 0.044542253 -0.038422573
0.03093245 0.0754153 -0.04120393 -0.044313386 0.0013465169 -0.05205273 -0.06456147 0.029200314
0.0026519413 -0.036072917 0.031678535 0.01430397 -0.030018229 0.04566131 0.0040619746 -0.0062568374
-0.01131261 -0.01697956 0.047908384 -0.059341878 -0.027917555 -0.025703609 0.051151644 0.032248717
-0.05312195 0.05980442 0.058061622 -0.021493036 -0.012324967 0.05515054 0.020565715 0.02633819
-0.04914349 0.053184204 0.028466113 -0.0280738 -0.015472381 0.0047352626 -0.053157337 -0.0034995412
-0.040080607 -0.009396245 0.034319345 0.022495694 -0.027020494 -0.02172611 0.026535448 -0.03195045
00000000: 5595 e2bc c098 973a 7170 b43c aaf2 3ebd
00000010: 7d3a 04bd c0ac 343d e1a3 22bd 3a5c 3fbb
00000020: 26a6 a0bb 9fb1 64bc c6c3 133d e24a 10bd
00000030: 4bf2 2fbd 2757 2cbd f071 363d fd60 1dbd
00000040: 0d66 fd3c 5673 9a3d 74c5 28bd f481 35bd
00000050: 9c7d b03a 3e35 55bd ce38 84bd 7f35 ef3c
00000060: 31cc 2d3b 32c1 13bd 5ac1 013d 335b 6a3c
00000070: cae8 f5bc 5b07 3b3d 501a 853b 2806 cdbb
00000080: 8658 39bc b818 8bbc 953b 443d 7810 73bd
00000090: 5bb3 e4bc 6090 d2bc 6384 513d 3b17 043d
000000a0: 6796 59bd 7bf5 743d 06d2 6d3d 2a12 b0bc
000000b0: a9ee 49bc 88e5 613d 6e79 a83c 30c3 d73c
000000c0: af4a 49bd aed7 593d c431 e93c 07fb e5bc
000000d0: df7f 7dbc 432a 9b3b 82bb 59bd 8f58 65bb
000000e0: 902b 24bd b5f2 19bc 7192 0c3d e448 b83c
000000f0: 155a ddbc f4fa b1bc de60 d93c 7ade 02bd

transformer_encoder.layers.0.norm1.weight f4 [64]
1.014224 1.0130132 1.023525 1.018885 1.0413508 1.0419565 1.0317419 1.0328361
1.0061442 1.0134648 1.0106403 0.98634356 0.99595755 0.9962258 1.0325316 0.98600084
1.060927 1.0015938 1.0459683 1.0392904 0.97568107 0.9557908 0.99256825 0.9890351
1.0352597 1.0268137 1.0147779 1.0160768 1.0098828 1.0420084 1.04083 1.0192288
1.0388367 1.0234298 1.0214982 1.072513 1.0146707 0.98531824 1.016385 1.0285318
1.0071921 1.0065854 1.0081265 1.0456927 1.0252092 1.0132478 0.9982216 1.0167758
1.0030712 1.0534471 0.99895334 1.0397179 0.9892445 0.9966737 1.0172819 1.0235076
1.0337418 1.0372131 1.025792 1.0265989 1.0293808 0.99509126 1.0286713 0.99223864
00000000: 18d2 813f 6baa 813f de02 833f d36a 823f
00000010: fc4a 853f d55e 853f 1e10 843f f933 843f
00000020: 55c9 803f 37b9 813f a95c 813f 0381 7c3f
00000030: 13f7 7e3f a708 7f3f ff29 843f 8d6a 7c3f
00000040: 75cc 873f 3a34 803f 4ae2 853f 7807 853f
00000050: 3cc6 793f b5ae 743f f418 7e3f 6831 7d3f
00000060: 6483 843f a26e 833f 3ee4 813f ce0e 823f
00000070: d743 813f 8860 853f eb39 853f 1776 823f
00000080: 9af8 843f bfff 823f 74c0 823f 1b48 893f
00000090: bbe0 813f d13d 7c3f e718 823f eea6 833f
000000a0: aceb 803f cad7 803f 4a0a 813f 42d9 853f
000000b0: 0e3a 833f 1bb2 813f 738b 7f3f b625 823f
000000c0: a364 803f 5bd7 863f 68bb 7f3f 7a15 853f
000000d0: 213f 7d3f 0226 7f3f 4b36 823f 4c02 833f
000000e0: a751 843f 66c3 843f 274d 833f 9867 833f
000000f0: c0c2 833f 4dbe 7e3f 80ab 833f 5a03 7e3f

transformer_encoder.layers.0.norm1.bias f4 [64]
0.024010397 0.0030298016 0.005333946 -0.027639363 -0.0013162238 -0.00019017718 0.0036053732 0.009006042
0.029669726 0.0014778236 -0.009797889 0.03430142 0.0043797884 -0.006179409 0.005792717 0.020911926
-0.0012189238 0.011912667 -0.013322309 -0.006401572 0.0031773746 -0.027460504 -0.017915659 -0.0090402225
-0.01958911 0.004054767 -0.011633719 -0.008584971 -0.0003568848 0.004756015 -0.012115002 0.009658721
0.008529984 0.018196788 -0.013362805 -0.011571604 -0.002586783 0.028518278 -0.0062736277 0.0016730578
0.0070633907 0.0032826713 -0.0043798806 -0.02330065 -0.036609467 0.006261018 0.0028609727 -0.023500558
0.0045123426 0.004890528 0.004235349 0.0036186436 -0.0039409846 -0.002263536 -0.00048617757 0.002248576
5.4954988e-05 0.00013135083 0.011076356 0.007116556 0.008311631 0.003168509 0.006481178 -0.011465984
00000000: 74b1 c43c a38f 463b 62c8 ae3b f26b e2bc
00000010: 2485 acba 4c6a 47b9 2048 6c3b 148e 133c
00000020: ed0d f33c 88b3 c13a 5387 20bc a57f 0c3d
00000030: 5484 8f3b a47c cabb d5d0 bd3b 7d4f ab3c
00000040: 4cc4 9fba 592d 433c d045 5abc 47c4 d1bb
00000050: 803b 503b daf4 e0bc dcc3 92bc 711d 14bc
00000060: 5779 a0bc dadd 843b 5b9b 3ebc faa7 0cbc
00000070: 441c bbb9 58d8 9b3b 007e 46bc 9d3f 1e3c
00000080: 59c1 0b3c 6e11 953c abef 5abc d396 3dbc
00000090: 0487 29bb 2a9f e93c 0193 cdbb 814a db3a
000000a0: 0474 e73b 1622 573b 1a85 8fbb 01e1 bebc
000000b0: cff3 15bd 3a29 cd3b 287f 3b3b 3e84 c0bc
000000c0: 46dc 933b b940 a03b afc8 8a3b c426 6d3b
000000d0: 6023 81bb d557 14bb a6e5 feb9 d85c 133b
000000e0: 787f 6638 38bb 0939 9b79 353c 0032 e93b
000000f0: 822d 083c c3a6 4f3b 1060 d43b d3db 3bbc

transformer_encoder.layers.0.norm2.weight f4 [64]
0.9966333 1.0203681 1.0371474 1.006616 1.0269316 1.0106429 1.0110688 0.9940762
0.99082303 0.9846121 0.99157536 0.9849589 0.9840296 0.9735081 1.0232244 0.96707654
1.0072498 0.99896044 1.003283 1.0212338 0.9792687 0.95205843 0.98745203 0.9599702
1.0180387 1.0229037 1.0167985 1.0025618 0.99700326 1.0043497 1.021403 0.9953788
1.0144755 0.9980953 0.9970781 1.020144 0.99807864 0.982444 0.983532 0.9881821
1.0037296 0.99834573 0.9549963 0.99856234 0.99851376 1.0144211 0.96499825 0.99525326
1.0065575 1.0239172 1.00853 0.9806657 0.9672568 0.989246 0.99972576 1.0030328
1.019678 1.0132008 1.0057788 1.0219116 1.0089365 0.9792027 1.0032326 0.98242533
00000000: 5c23 7f3f 6c9b 823f 3fc1 843f cbd8 803f
00000010: 7f72 833f bf5c 813f b46a 813f c77b 7e3f
00000020: 94a6 7d3f 8a0f 7c3f e2d7 7d3f 4426 7c3f
00000030: 5de9 7b3f d437 793f 04f9 823f 5492 773f
00000040: 90ed 803f dfbb 7f3f 946b 803f cab7 823f
00000050: 5bb1 7a3f 1aba 733f a8c9 7c3f 9bc0 753f
00000060: 184f 823f 82ee 823f 7426 823f f253 803f
00000070: 9b3b 7f3f 888e 803f 55bd 823f 25d1 7e3f
00000080: 55da 813f 2c83 7f3f 8340 7f3f 1494 823f
00000090: 1582 7f3f 7381 7b3f c1c8 7b3f 81f9 7c3f
000000a0: 367a 803f 9693 7f3f a37a 743f c8a1 7f3f
000000b0: 999e 7f3f 8dd8 813f 200a 773f ebc8 7e3f
000000c0: e0d6 803f b80f 833f 8317 813f e80c 7b3f
000000d0: 249e 773f 3a3f 7d3f 07ee 7f3f 6163 803f
000000e0: cf84 823f 90b0 813f 5cbd 803f 00ce 823f
000000f0: d524 813f 07ad 7a3f ed69 803f 3a80 7b3f

transformer_encoder.layers.0.norm2.bias f4 [64]
0.023259554 0.008406754 0.015740449 -0.0032347408 -0.003759181 -0.009727939 0.013012243 0.020521045
0.023127107 -0.001224758 -0.0071284245 0.02047361 0.006757188 -0.023000717 0.004761548 0.028491117
-0.019787326 0.010537149 -0.04066101 -0.01176791 0.011074471 -0.023931282 -0.0014375058 -0.022190643
0.0010433324 0.018728305 -0.009326008 -0.020534383 -0.006842372 -0.0019827571 -0.014683591 0.0051230644
0.01804633 0.013210223 -0.010580271 -0.013259399 -0.0031075415 0.012560406 -0.0072989427 -0.010471419
0.0028515924 0.009599183 0.007359735 -0.013705629 -0.023752766 0.017643033 0.0076846993 -0.017184284
-0.010277012 -0.002420221 0.011216617 0.0034319807 -0.01420328 -0.0108813085 -3.689586e-06 -0.0058276984
0.0029201466 -0.023617778 0.00089354464 0.0005851789 0.011292615 0.00056219404 0.006917284 -0.005936126
00000000: d28a be3c 7bbc 093c 1df2 803c f2fd 53bb
00000010: 975c 76bb ef61 1fbc 4e31 553c c01b a83c
00000020: 0f75 bd3c 0f88 a0ba 8f95 e9bb 46b8 a73c
00000030: 676b dd3b 006c bcbc c206 9c3b 3466 e93c
00000040: 0819 a2bc 02a4 2c3c 298c 26bd 31ce 40bc
00000050: b371 353c 890b c4bc b16a bcba 27c9 b5bc
00000060: 6dc0 883a 1a6c 993c 1dcc 18bc b937 a8bc
00000070: fa35 e0bb 25f1 01bb 7293 70bc 61df a73b
00000080: e6d5 933c b16f 583c df58 2dbc f33d 59bc
00000090: e5a7 4bbb 29ca 4d3c f82b efbb 5190 2bbc
000000a0: c8e1 3a3b e445 1d3c ef29 f13b 938d 60bc
000000b0: 2995 c2bc 1f88 903c eecf fb3b 0ec6 8cbc
000000c0: ea60 28bc 929c 1ebb e7c5 373c 15eb 603b
000000d0: e0b4 68bc 8447 32bc 9b9a 77b6 47f6 bebb
000000e0: ee5f 3f3b 127a c1bc c43c 6a3a b166 193a
000000f0: a904 393c 3460 133a 62aa e23b d683 c2bb
