model_stgcn_backbone_classifier/front_classifier_transformer_val_64.pt (torch, 413186 bytes, 28 tensors)

transformer_encoder.layers.0.self_attn.in_proj_weight f4 [192, 64]
00000000: 0266 dfbd a7fb c5bd 748b e23d b960 bebd
00000010: da9e 813d fafa 34bd 5822 9f3d a77d a3bd
00000020: bddf dc3d 767d b43d 74ba 473d 7695 a7bc
00000030: 6c98 db3d e5ec ab3d c952 e33d 19c7 b2bb
00000040: 4b06 97bd cab4 cb3d 6403 0b3e d95c 1ebd
00000050: 79e1 b4bd d496 02bd 672d 033e f5ef babc
00000060: b777 213d f668 0e3d 9756 0abe 0807 a33d
00000070: 319c 133e 7a62 23bc a4c1 913b cffb bebd
00000080: f1d8 703d 7e5d 96bd 0de5 b1bc 0cef 0e3e
00000090: fa98 5ebc 040d d4bc 1fc4 fbbd 6426 033e
000000a0: f5a4 16be f7d4 c93d 8dbd 7dbd 4453 d4bb
000000b0: 90a4 813d 9769 01bd d88e 713d 4020 fabc
000000c0: 0bef 83bd f324 e23d af63 793d 3abf 0c3d
000000d0: d43c 78bd f004 023e 49e4 003d 8249 a9bd
000000e0: bf53 e8bd d35b 1b3e fdb5 6cbd e7bb 543d
000000f0: df7e be3d 97e2 d03d 1d17 073b af52 f5bd
00000100: 337b 1bbe 04f4 a8bd d0c6 fe3d cf1a af3d
00000110: 6096 c1bc 49a4 103e fcc8 bbbd a68d 7e3d
00000120: f34f fabd 6d79 05be b5ec dd3d d928 8a3b
00000130: b327 ff3c d86b f6bd fc1b c03d deed c6bd
00000140: 03ae a23d 73f3 d23c e706 dcbd 8d4b 1c3e
00000150: 7901 dbbc 3cd1 f03d 2030 c53d 7640 c13d
00000160: 3329 133d 737f c43a 7255 bbbc 2052 d4bc
00000170: 4443 46bd 0dd2 3d3d 742b 1cbe e669 c53d
00000180: 6c91 9bbd 9a50 8ebd 4dce dc3c f4b6 b6bd
00000190: a587 13bc 18d1 0a3d 9020 dabc d386 fe3d
000001a0: 2cd2 aabd af40 013c caac 8b3d fd6d ed3c
000001b0: 3eb9 89bd 6135 a33d 76b7 e13d b523 b5bd
000001c0: 66ce 81bd ba16 053d c710 f4bd 79bf de3d
000001d0: 8387 c7ba 1c88 b03d ff58 db3d 3a40 f63d
000001e0: b1e6 af3c 5772 acbd 3328 2abd 2441 d03d
000001f0: e8b8 09bc 91b4 b0bd 0f8c e03d 5bd8 48ba
00000200: 69a3 0e3e 34ae df3c f569 6a3d e6ac 113d
00000210: 9914 cabc 35fb da3d efce b0bd 4454 1ebd
00000220: b322 b7bd 1b86 f6bc 219f 07be f808 8abc
00000230: 41d3 2e3d 1dd5 be3d 1c65 ebbd 576e a93d
00000240: 899f b73d f31b e53c 57de 833d 375d 353d
00000250: 8b84 26bd 9195 81bd e747 403d e25d 17bd
00000260: 47d1 cf3d 3c2e dcbd 68d9 c83d 6127 a63c
00000270: b508 873d 27a2 0e3e d5e5 f1bd 2da9 93bd
00000280: 728c 11bd 5536 ce3c 1aa0 0cbe cecc 0e3e
00000290: 6685 17bd e96d ffbd 503c 6e3c 34c7 f13c
000002a0: a78d e7bc be9b ff3c 54e4 be3d ada3 913d
000002b0: 5fc5 423d f63d c53d 5c82 c7bd 6236 0e3e
000002c0: 9541 f43d c9c0 be3d 3a2e b6bd a423 bf3d
000002d0: 6531 163e f73b 19be cbba ed3d 9ab5 103e
000002e0: 4111 a6bc 671b 8e3d 7b42 c03c 10f0 d0bd
000002f0: 9b45 bb3d 1d54 01bd 2692 e1bd c1ed 0d3e
00000300: 6f8f a5bd b350 113e f685 ecbd 14c4 b0bd
00000310: e3f6 cebd ccbd d2ba c451 95bd c77d 27bd
00000320: 2b3c e23d 53be 763d b1f3 ac3c 8665 17be
00000330: b9b8 093e 26f3 893d 0d4a 59bd 3d9c f03d
00000340: 77c3 d8bc f221 cdbb 53f2 81bd 14b6 13be
00000350: 9d52 f0bc 1473 e2bc b20d 4fbd badf 073e
00000360: 6584 ccbd c6a1 ea3d deb6 99bc d49e e83d
00000370: 5275 973d c8aa c5bd d432 5bbd a559 d93d
00000380: 0f97 8bbc 80d4 353d 7e3d 193e 8491 0ebe
00000390: b79e 843d 7877 023e 954c dc3d a5cb b5bc
000003a0: f00f abbd 6388 193e 051e 8abd 1887 123e
000003b0: 40eb 103d a46f 1a3e 2101 f63d 2c22 10be
000003c0: 32c4 083d 4eca c03d 7631 ef3d e87f e3bd
000003d0: ba92 05be 4cce ffbd 272d ca3d 1d2f 043e
000003e0: 4c93 363b d5a0 a63d 8e7b 78ba 6a6f f3bd
000003f0: dce1 35bd 96a3 cc3d c8a4 d1ba 4526 193e
-0.10908128 -0.096671395 0.11061755 -0.09295792 0.06329127 -0.044184662 0.077702224 -0.07982951
0.10784862 0.08812992 0.0487618 -0.02045701 0.107224315 0.083947934 0.110997744 -0.005455863
-0.07374247 0.09946592 0.13575512 -0.038662765 -0.08832068 -0.031882122 0.12810288 -0.022819499
0.03942081 0.034768067 -0.13509594 0.079603255 0.14415051 -0.009972209 0.0044481326 -0.093253724
0.05880064 -0.07342051 -0.021715665 0.13958377 -0.013586277 -0.025885113 -0.122932665 0.12807614
-0.14711364 0.09855073 -0.061948348 -0.0064796526 0.06330216 -0.03159484 0.058974117 -0.030532956
-0.06442078 0.11042204 0.06088608 0.034362055 -0.060604885 0.12697196 0.03146771 -0.08265974
-0.11344098 0.15171747 -0.057790745 0.05193701 0.093015425 0.101994686 0.0020613142 -0.11978661
-0.15183716 -0.08249667 0.12440264 0.08550035 -0.023631275 0.1412517 -0.09169194 0.062146805
-0.1222228 -0.13034602 0.10836164 0.004216295 0.03114686 -0.12032288 0.093803376 -0.09713338
0.07943346 0.025750851 -0.10743504 0.15263195 -0.0267341 0.11758658 0.0962832 0.09436123
0.035927963 0.0014991596 -0.022867892 -0.025918067 -0.048403993 0.0463429 -0.15250951 0.09639339
-0.075960964 -0.06948967 0.02695384 -0.08921614 -0.009004508 0.033890814 -0.026626855 0.124280594
-0.08340868 0.007888957 0.06820066 0.02898311 -0.06724785 0.079691656 0.110213205 -0.08844701
-0.063381955 0.032492377 -0.119172625 0.10876364 -0.0015222881 0.08619711 0.10710334 0.12023969
0.021472307 -0.08420246 -0.041542243 0.101686746 -0.0084059015 -0.0862819 0.10964214 -0.0007661634
0.13929524 0.027304746 0.057229955 0.03556528 -0.024668025 0.10692445 -0.086332195 -0.03865458
-0.08942165 -0.030093243 -0.13244297 -0.01684998 0.042681936 0.09317992 -0.114938945 0.08272999
0.08965976 0.027967429 0.06438892 0.04427835 -0.040653747 -0.06327356 0.04694357 -0.036954768
0.10147338 -0.10751006 0.09807092 0.02028245 0.065934576 0.13929044 -0.11811415 -0.07210002
-0.03553433 0.025172392 -0.13732949 0.13945314 -0.036992453 -0.124721356 0.014540747 0.029513933
-0.028265787 0.031202193 0.09320894 0.07111297 0.04755151 0.09630959 -0.09741661 0.13887933
0.11926571 0.093141146 -0.08895536 0.0933297 0.1466728 -0.14964281 0.116078936 0.14131775
-0.0202719 0.0693882 0.0234692 -0.10202038 0.091441356 -0.031574357 -0.11014204 0.13860227
-0.080839984 0.1419094 -0.115489885 -0.08631149 -0.10105684 -0.0016078292 -0.07290986 -0.040891435
0.110466324 0.0602401 0.021112295 -0.14784822 0.13449372 0.0673583 -0.053049136 0.1174855
-0.026460392 -0.00626015 -0.06345048 -0.14424926 -0.029336268 -0.027642764 -0.05055017 0.13268939
-0.0998619 0.11456637 -0.018763956 0.11358419 0.07395424 -0.096517146 -0.05351527 0.106128015
-0.017039804 0.04439211 0.14964864 -0.13922697 0.06475585 0.12740886 0.10756794 -0.022191832
-0.08352649 0.14993434 -0.06744007 0.14309347 0.035380602 0.1508165 0.12011934 -0.14075536
0.03339023 0.094135866 0.11679356 -0.111083806 -0.13044253 -0.1249052 0.098718934 0.12908597
0.0027858792 0.08136145 -0.00094788603 -0.11886485 -0.04440485 0.09992139 -0.0015994543 0.14956005

transformer_encoder.layers.0.self_attn.in_proj_bias f4 [192]
00000000: 994b 61b8 58d5 2cb9 53ca 8038 6013 b638
00000010: 1ce6 7b38 e4bb 53b8 ecf2 0239 2d5f 3339
00000020: 7db1 2bb7 42d9 9a36 ba4f dc38 ad06 b838
00000030: 16d4 6ab9 0e52 8338 f300 1bb8 ee5a 6db8
00000040: a94f 9eb7 9a1a 3939 41dc 9fb8 ae6c 0237
00000050: 8e7f 3638 d232 09b9 c407 f637 6dc7 1139
00000060: c02f dbb7 4ff4 6cb8 d79c 8bb9 ae5f 9f39
00000070: 9b8c 23b8 9159 a738 d919 44b9 7d93 f8b9
00000080: b5cf 11b7 1607 b237 68ac 7138 c3b8 51b9
00000090: 9805 35b9 d420 a837 2625 2638 db61 35b8
000000a0: 9e37 e7b8 857c 6937 8619 01b8 2526 cbb6
000000b0: 9388 1039 e773 7339 0cf6 8039 8704 1fb9
000000c0: 4a22 0339 feb4 ceb8 b1ef 6139 38d3 d5b8
000000d0: 0737 e7b8 d3c4 d3b8 6abc 2cb9 f653 1b39
000000e0: 708e e538 94dc 9e39 cff0 3338 41ad 2b36
000000f0: 0ffe 9fb8 bcf7 8fb9 a8b2 1bb8 c4c3 8338
00000100: c21b 4eb9 10a2 fe38 12b2 e5b8 5558 3d38
00000110: e3b1 84b9 a4fc 8db9 e596 3439 5520 cd39
00000120: 2232 c0b9 c562 03b9 f7e1 53b4 19b8 b038
00000130: 8677 0039 10ce fa38 63a3 4538 f814 96b9
00000140: acc3 2239 c46c 9539 2eb8 a1b8 35dd e5b8
00000150: 5fa7 00b9 85f8 9235 7739 8639 d05a 56b9
00000160: 2017 43b9 4386 2539 a8e4 d1b9 21af f838
00000170: 8ba6 e439 01e6 72b9 797a 2139 719a 3738
00000180: fd1a 4ab9 be16 2939 1f8d cb38 49a5 e337
00000190: 866a d2b8 501e 41b9 e960 a637 7874 acb8
000001a0: 6c2f 91b8 7189 9bb8 1644 41b9 f5f2 a739
000001b0: 9b8c c638 2953 cf38 204b 90b8 6cc4 8cb9
000001c0: 5686 36b9 0bfb 1a39 f783 84b8 4a10 0f37
000001d0: 4339 bd38 a3c8 9339 f69a 94b8 3c86 f839
000001e0: b181 d0b8 b698 7ab8 da0e 70b9 b825 1239
000001f0: 1074 9539 729c 8f39 5633 bd38 dbd1 bdb8
00000200: d3ac c5bb 1988 9ebc 66e3 f73b 1cc3 69b9
00000210: aef8 363c c150 45bc b090 573b 60f4 c53b
00000220: 6072 4c3c 55d9 393b 5f11 a9bb f77e ca3b
00000230: b2db 92bc 7cb6 d839 5f3e 9fbc cfee 533c
00000240: bc06 893b b755 24bb 5a11 99bb 33d6 ddbb
00000250: e8f4 90bc 73c9 c6bb 4e4e f33b aa48 293c
00000260: 149b a23b 4a0b b5bc e014 4bbc 8bce b1bb
00000270: a83b 0c3c 29e2 eb3a 7ac9 06bc 1b5c 5cbb
00000280: 9928 053b c901 03bc 9b86 1abb e35f a8bc
00000290: 4548 0d3b 4c1f 30bb 5b68 5dbc e5ab 283b
000002a0: d3f0 3e3c 4f4a b3bb 018e 663c 89c0 1b3c
000002b0: 2d3c a73b 5484 26b8 a62e 0c3c 69cb c2bc
000002c0: 643c 793b d2e6 b4bc cc06 5b3b 99cc 533c
000002d0: dc45 a9bc b509 1b3c 0d17 66bc a9b4 fa3b
000002e0: 5803 a73c 77da 953b 7d3e 433b 5755 c1bb
000002f0: a434 88bc 213d 2f3b 4af7 f6ba c722 bc3a
-5.3714586e-05 -0.00016482675 6.1412014e-05 8.682045e-05 6.005737e-05 -5.0481307e-05 0.00012488262 0.00017106226
-1.0233719e-05 4.61485e-06 0.00010505268 8.775047e-05 -0.00022394987 6.261851e-05 -3.6955764e-05 -5.6589888e-05
-1.8872162e-05 0.00017652885 -7.622736e-05 7.773908e-06 4.3510976e-05 -0.0001308427 2.9329101e-05 0.0001390257
-2.612907e-05 -5.6494315e-05 -0.00026629 0.0003039813 -3.8993177e-05 7.9798636e-05 -0.00018701646 -0.00047412133
-8.691034e-06 2.1222553e-05 5.7619443e-05 -0.00020000622 -0.00017263589 2.0042447e-05 3.961208e-05 -4.3244898e-05
-0.00011025298 1.3916874e-05 -3.0779767e-05 -6.054312e-06 0.00013783788 0.00023217463 0.00024597382 -0.00015165108
0.00012505907 -9.856558e-05 0.00021546964 -0.00010195974 -0.00011025188 -0.000100979254 -0.00016473388 0.0001481323
0.00010946102 0.00030300452 4.2901196e-05 2.5581833e-06 -7.629033e-05 -0.00027459662 -3.7121266e-05 6.283031e-05
-0.00019656032 0.0001214185 -0.00010952739 4.5143377e-05 -0.00025309538 -0.00027081848 0.0001722235 0.00039124736
-0.00036658446 -0.00012529928 -1.9733112e-07 8.426625e-05 0.00012251557 0.00011959311 4.7120626e-05 -0.00028625852
0.00015522417 0.0002850053 -7.7113844e-05 -0.00010960774 -0.00012269382 1.0950176e-06 0.00025601286 -0.0002044246
-0.00018605264 0.00015785643 -0.0004003395 0.00011858182 0.00043611633 -0.00023164602 0.00015399781 4.3774435e-05
-0.00019274275 0.00016125568 9.70608e-05 2.7137476e-05 -0.00010033422 -0.00018417207 1.983387e-05 -8.223293e-05
-6.922972e-05 -7.4165764e-05 -0.00018431278 0.0003203374 9.4675655e-05 9.886019e-05 -6.880448e-05 -0.00026849227
-0.00017406917 0.00014780105 -6.318831e-05 8.527257e-06 9.022888e-05 0.0002818751 -7.086054e-05 0.00047402258
-9.94237e-05 -5.9746868e-05 -0.00022893716 0.00013937696 0.00028505968 0.00027391646 9.021784e-05 -9.051311e-05
-0.006032565 -0.019352006 0.00756495 -0.00022293295 0.011167688 -0.012043179 0.0032892637 0.0060410947
0.012478441 0.00283583 -0.0051595415 0.006179686 -0.017927025 0.00041334692 -0.01943892 0.012935354
0.004181711 -0.0025075504 -0.004671258 -0.0067699193 -0.017694905 -0.006066495 0.007425106 0.010332266
0.0049623344 -0.02210011 -0.012395114 -0.005426233 0.008559145 0.0017996478 -0.008226747 -0.0033624235
0.0020318388 -0.007996031 -0.0023578766 -0.020553535 0.0021557969 -0.0026874123 -0.01351365 0.0025737223
0.011654097 -0.0054715048 0.014071942 0.009506353 0.005103609 -3.9700724e-05 0.008556044 -0.023778634
0.003803038 -0.02208272 0.00334208 0.012927198 -0.020663194 0.009462764 -0.014043582 0.007650931
0.020387337 0.004573162 0.0029791885 -0.005900066 -0.016626664 0.0026739317 -0.0018842008 0.0014353626

transformer_encoder.layers.0.self_attn.out_proj.weight f4 [64, 64]
00000000: 01c5 2bbc bcd0 00bd cfd8 033d 2c15 7e3b
00000010: ee62 a23d 8d8a 9a3d 85cd 80bd 708a 953c
00000020: 03c0 8cbc 2c0e 9e3d 3052 c9bd 1fb7 0a3d
00000030: ddf4 993d cdc9 483d 3186 863d 79f2 09be
00000040: a75d b03c a8d1 ca3b e344 213d 1603 62bd
00000050: cfe9 b73d cf2f 33bd 2dc4 91bd af6d e23c
00000060: 8754 613d 5e2b b1bd b222 4abd 65f4 92bd
00000070: 5234 8abd 9d0e 393d b9e8 843d a1b4 00bc
00000080: 6246 59bd cd48 a4bb 4c81 853d c4b0 b3bc
00000090: 3cea 313c 3546 99bd f350 bf3b 910d 88bd
000000a0: ce08 d13d 1377 7a3d 40d9 b8bd bc22 19bc
000000b0: 84f5 f3bd a8ef 94bd 7036 bebd 429e a63d
000000c0: 05e7 25bc cff0 9f3d 4403 683d bca9 ca3d
000000d0: 26ba dd3d 724e 6f3c 2286 6b3c 9367 9c3d
000000e0: 1f94 833d ddf1 9ebc 7368 e9bd 29ef 24bd
000000f0: ab84 80bd 6a7f d93d c929 6dbd 80d8 4abd
00000100: 03ab 143d df30 f0bd cead d83d 436e c53d
00000110: 9b6a 7d3d 7c0b 1abb 9af1 cf3d d12b ec3d
00000120: 4507 91bd 9f39 89bd 311a c43a 8d39 d33b
00000130: ce26 3bbd 7bfe 9ebc 60d7 9dbd 8a37 ab3d
00000140: 722e 043e 0fe0 973d e3c1 823d 1ad7 473c
00000150: 25aa 14bd dcc9 4e3d dc0a cabd a96e 6cbb
00000160: 4101 203d af29 df3c b23f 383d fb3d 8cbd
00000170: 5dc1 703c ee16 c83d a55d d7bd 25aa cdbd
00000180: 61c7 0fbd e585 b8bd cda1 af3d 4240 8dbc
00000190: 848f d4bc 8f7e a23a d5db 9a3c b4e0 2b3c
000001a0: 6238 283d 7740 54bd 8630 843d dd43 14bd
000001b0: 8c72 94bd 570f 8d3d b04d 173d 840f 95bd
000001c0: 6c5a 23bd bff3 9abd 957d cebc 97cb e8bd
000001d0: 80d6 58bd c16b 063d 8366 64bc c169 debc
000001e0: 5406 f5bd 7321 7b3d 5bfa 35bc 81fd 08bc
000001f0: 5b7f 8d3d 73f7 4cbd 97f1 20bc c4f1 11bc
00000200: b965 61bd b7c1 f6bd fd38 633d 8299 b3bd
00000210: 3380 86bc 27dd 063d 5d40 c2bd 94ce 15bd
00000220: 69c7 a4bd 5de2 543a 2cf3 87bd a66c 8fbd
00000230: 7ad6 3c3d 636c 463c cf7c 033c d9e1 78bd
00000240: ff7a 8e3d 0967 0e3e d7fe 2b3d 0fbc aa3c
00000250: 08b4 05be ce71 c23d 98c6 703d 757b 8dbd
00000260: 8f30 f4bd 3a05 26bd b15f 123e 149b f23c
00000270: b644 ba3b a918 9ebd dd4f 98bd 4f23 a13d
00000280: 76d3 8a3d 806e b1bd 0561 b2bd 057b b53d
00000290: bb64 d43d 37fa a13d 13e4 0fbc 5c05 993d
000002a0: 19b8 a9b9 3236 c7ba a51c bfbd 04c9 3cbd
000002b0: 8ea4 2cbc 8b49 babd c527 39bd 8289 a03d
000002c0: e5a8 04be 99c1 81bd d2c1 253e cd69 3dbc
000002d0: 42ee ce3d c24f a3bd a9ad 33bd f44b 923d
000002e0: db33 cdbd e2de 33bd a6a3 723d bef4 9bbd
000002f0: 33e5 183d c129 af3b fc74 573d 7659 303d
00000300: f2c4 afbc a945 b6bd 5882 6abd cc03 afbd
00000310: ee82 e9bd 4baa e33d af81 a1bb 791d e5bd
00000320: f95c dbbd d3ce 8fbd f9a4 fa3c e822 f13d
00000330: 3ff7 abbd 92cb c1bd 1034 863c 3acf 4e3d
00000340: 015b b13d 1aa6 bdbc e214 40bd 2205 92bd
00000350: 660e b43d 4924 463d eb81 6a3d 5974 bc3c
00000360: 5b2d 5d3d 0871 18bd 4990 a23d f29f b6bc
00000370: 8896 0dbd 3018 8dbd 6fa0 7cbd d00c d63c
00000380: e12d cabc 40f9 e13d f248 84bd 7855 f63d
00000390: 1ac6 fbbd 6e3b b4bd 22ea 25bd 5df6 693d
000003a0: bdc0 31bc a3ce e2bd bd33 89bc ba93 2d3d
000003b0: a94c 033e dca6 93bd 56dd 683d 5fe4 123e
000003c0: e20f 5abc 9d74 c23c 3124 073d 44e6 8ebd
000003d0: 3401 233d d133 9cbc c58b a5bd 2aca 853d
000003e0: 983f 003e 2987 dcbd 4b78 bc3d 1bcd b4bc
000003f0: 323e 04be 1a3b d13b db59 37bd b036 e73d
-0.010483981 -0.031449065 0.032189187 0.0038769944 0.079290256 0.07545958 -0.062892 0.018254489
-0.017181402 0.07717547 -0.09830129 0.033866044 0.07517407 0.049020577 0.06568564 -0.13471402
0.021529032 0.0061895438 0.039372336 -0.055178724 0.08980142 -0.043746766 -0.07117496 0.027640192
0.055012252 -0.0865085 -0.049349494 -0.07175521 -0.067482606 0.045179952 0.06489701 -0.007855565
-0.053045638 -0.0050135613 0.06518802 -0.021934874 0.0108590685 -0.07484094 0.0058385073 -0.066432126
0.102067575 0.061148714 -0.09025812 -0.00934666 -0.11912063 -0.07272273 -0.09287727 0.08135654
-0.01012588 0.078096025 0.05664374 0.098956555 0.108265206 0.014606105 0.0143752415 0.07636943
0.06424736 -0.019402439 -0.11396875 -0.040267143 -0.062753044 0.106200054 -0.057901178 -0.049522877
0.036295902 -0.117280714 0.105800256 0.096401714 0.061869245 -0.002350538 0.10153504 0.11531795
-0.07081465 -0.067004435 0.0014961419 0.0064460696 -0.045691304 -0.019408455 -0.07707095 0.083602026
0.12908342 0.07415783 0.06384637 0.01219728 -0.036295075 0.050485477 -0.098653525 -0.00360767
0.039063696 0.027241556 0.04498262 -0.06847759 0.014694539 0.097699985 -0.10515908 -0.10042218
-0.035102252 -0.09009913 0.08575783 -0.017242555 -0.02594734 0.0012397337 0.018903652 0.010490585
0.041069396 -0.05181929 0.064545676 -0.036197532 -0.072484106 0.068876915 0.036939323 -0.0727835
-0.039881155 -0.07566022 -0.025206367 -0.11366957 -0.05293894 0.032817606 -0.013940456 -0.027150037
-0.119640976 0.061311197 -0.011107053 -0.008361221 0.06909057 -0.050040673 -0.0098232245 -0.008907739
-0.05502865 -0.12048667 0.05547427 -0.08769514 -0.016418552 0.03292575 -0.094849326 -0.03657396
-0.08045847 0.0008120889 -0.06638178 -0.07003145 0.04610298 0.012110802 0.008025362 -0.06076226
0.069570534 0.13906492 0.04199108 0.020841626 -0.13056958 0.09494363 0.058783144 -0.06908313
-0.11923324 -0.04053233 0.14294316 0.029614963 0.0056844605 -0.07719547 -0.07437108 0.07868063
0.06778614 -0.08663654 -0.08709911 0.08861355 0.10370775 0.07909053 -0.0087824045 0.07471725
-0.00032371355 -0.0015198647 -0.093316354 -0.04609014 -0.01053728 -0.090960585 -0.045203943 0.078387275
-0.12955053 -0.06335754 0.16187218 -0.011560869 0.10104038 -0.07974197 -0.043866787 0.07143393
-0.10019656 -0.04391373 0.0592381 -0.0761504 0.037327956 0.0053455536 0.0526018 0.043054067
-0.021456216 -0.08900005 -0.05725321 -0.08545646 -0.11401926 0.11116465 -0.0049287896 -0.11187262
-0.107110925 -0.070218705 0.030596243 0.11774236 -0.08396768 -0.09462656 0.016382247 0.050490595
0.08659936 -0.023150492 -0.046894915 -0.07129885 0.08791809 0.048374448 0.057252806 0.023004698
0.053998332 -0.03721717 0.079376765 -0.022293065 -0.034567386 -0.06889379 -0.06167644 0.026129156
-0.02468008 0.11033869 -0.06459226 0.120280206 -0.12293644 -0.08800398 -0.04050649 0.057119716
-0.010849175 -0.11074569 -0.016748304 0.04237721 0.12822212 -0.0720956 0.056851707 0.14344929
-0.013309451 0.023737246 0.0329935 -0.069775134 0.03979607 -0.019067677 -0.080832995 0.065327
0.12524259 -0.10767967 0.092026316 -0.022070458 -0.1291435 0.0063852193 -0.044763427 0.11289728

transformer_encoder.layers.0.self_attn.out_proj.bias f4 [64]
00000000: 74fe 033c 68d0 7e38 2786 fb3b fc8f 553b
00000010: 14fd e8bb f35c 8bbc 152f 37bb b49a 43bb
00000020: 009e 1dbc d723 1a3c 54c1 463c 42cb cdbb
00000030: 8c22 9d3c 1838 adb8 0a99 97bb 25e1 753b
00000040: 2241 d939 2eb2 b8bb df67 cc3b d7f3 80bb
00000050: 704a 2bba b47b 22bb ba96 973b bc76 333a
00000060: 5430 78bc 2a9e 82bb 7105 123c 55f6 b73b
00000070: 57a4 94bb 7d7c c9bb 6de5 443a e747 e83b
00000080: 7880 ab3a 6a15 233c 00a7 e5bb e9a0 0d3c
00000090: e37a b83b ed93 d03b 2037 413c a9cc 33bb
000000a0: c282 87bb d4eb 06bc ee6e ccbc 015f 183c
000000b0: 0837 743b 64db 173c 2d1c 8abb f764 e9bb
000000c0: f726 0f3c 69ef a83a 9186 aabb e8c4 293b
000000d0: 4c8d 833c 4225 46bc 686c c5ba 47ba b73b
000000e0: 57c6 123c 4530 bdbb a56e d43b 20bb 44bc
000000f0: 9aec cb3c d82a 19bb 8ced 8ebb bac4 a7bb
0.008056272 6.0752413e-05 0.0076759043 0.0032587042 -0.0071102474 -0.017012095 -0.0027951647 -0.002984685
-0.00962019 0.009407959 0.012131054 -0.0062803337 0.019181512 -8.259731e-05 -0.004626398 0.003751823
0.00041437993 -0.005636475 0.0062379683 -0.003935318 -0.00065342244 -0.002479297 0.0046261223 0.0006846001
-0.015148241 -0.00398614 0.00891243 0.005614082 -0.0045361924 -0.0061488734 0.0007510994 0.0070886496
0.0013084551 0.009953836 -0.0070084333 0.008644321 0.0056298836 0.0063652904 0.011792928 -0.002743522
-0.0041354606 -0.008234937 -0.02495524 0.009299994 0.0037264246 0.009268615 -0.0042147846 -0.0071226317
0.008737317 0.0012888733 -0.00520403 0.0025904719 0.016058587 -0.012093844 -0.0015062215 0.005606923
0.008958421 -0.0057735764 0.0064829164 -0.012007505 0.024893094 -0.0023371484 -0.004361814 -0.005119887

transformer_encoder.layers.0.linear1.weight f4 [256, 64]
00000000: 36a3 c23c 7a3d f0bd d74f 0fbd 5876 933d
00000010: 23d1 ff3c 5477 27bd 1973 ebbd 5d55 b03a
00000020: 7120 073e 2d95 5ebd 26e2 a9bd 799f c73c
00000030: 12d1 abbd eb0e 013e fe6e bdbd dc4d 94bd
00000040: 25e4 b73d d888 96bd ca0e 71bc c3fc 1b3d
00000050: b503 d6bd 6d8f 833c 207c 66bd 1817 ebbc
00000060: 5f04 5db9 32f6 e03d 4f7b 7abd abaf c43d
00000070: 2ecb 033e 993d 20bc a724 21bd 62b2 cc3d
00000080: c551 94bd 5270 b63d 6e28 093e ed59 fabd
00000090: 576b 093e 5ab2 3c3d 00c8 ed3d a8c2 fdbd
000000a0: 3292 633d c643 e6bc c1a1 e63d 3a9f a83d
000000b0: de77 12be 2f2b 18bd fe09 85bd 6ee0 743d
000000c0: a040 c1bc 1ef6 b6bd 8dda 32bb 5ff5 81bd
000000d0: 753b e5bd 8671 943d 7ecb b53d 105f a63d
000000e0: 41be b9bd c5a8 80bd fcbb 8cbc e412 0b3d
000000f0: 4c77 9a3d e9f0 9b3d ec3e f53c 82d6 25be
00000100: 1517 0c3e 3ffa 373d 54ff 073d edbf 43bd
00000110: 804e d0bd f5af dabc 3586 4fbd 60e7 e9bb
00000120: d256 99bd 8144 f0ba 7aba 3d3d 6f0e 05bc
00000130: 079f d93d 49cd c03d 841c bb3b bc6d 84bd
00000140: 0927 2abd e502 2b3d 6c14 053d 8823 7b3c
00000150: 22b2 933d cebf 103d 9733 013c 08d5 ee3d
00000160: 827d 2f3d 5b2b 063d dfa2 06be 2f60 d6bd
00000170: c0ae 953c d43c 52bd c863 2dbd bb04 98bd
00000180: 0841 3ebc 0c95 e83c f78d 433d d7b3 543d
00000190: d862 bc3d 5632 623d ba9c e63d 2d29 c5bd
000001a0: 04c4 8c3a fa83 3cbc 8b32 803d 6f25 be3d
000001b0: 0710 ff3d 8153 0f3b 6ddf 0c3d 7026 cf3d
000001c0: afab 55bd 3462 cb3d 469b adbc d55c 8bbc
000001d0: ff6a af3d 929b c83d 0b7a 15bc d644 cabd
000001e0: 46b1 69bc 2b9a e1bd 3483 46bc 3213 773b
000001f0: 6e80 a2bc b9e4 d63b 3734 e73d 7fdd 6b3c
00000200: c569 75bc e5e0 c93d 4b68 46bd 9c36 eb3d
00000210: 0802 ce3d ecdb cebd 1d97 ed3d db2a 903c
00000220: 79bb c23d ce47 f5bd c2a2 13be 1c12 39bb
00000230: 1466 7ebc 3088 163e f0ef a23a 9f4d 5f3d
00000240: c25c 9b3d 8deb f83c 74df 6abd 091d 91bd
00000250: 6a7b 603c 994a db3c aba9 05be 9825 c2bb
00000260: 8c6d 77bd 881b 97bd 74bf abbd b897 2fbd
00000270: a746 71bd 60ce 8e3d f0de a0bd ed64 443d
00000280: 2666 bdbd 9471 e83d 1130 55bd f4cf 73bd
00000290: 3be2 83bd 901b eebd 0f64 473d f8b3 5c3d
000002a0: 12ca 493d b760 bdbd 2d0c c3bd 5c9e 05be
000002b0: c877 91bd ada4 2a3e 6c30 823d 6bee 2e3c
000002c0: 21ac debd f379 023d 80b2 0f3e c67a e4bc
000002d0: c1f5 32bc 534f 0e3d f5ef 9b3d 1a75 ee3d
000002e0: 08b5 a13d 42ed aebd b5fc c4bd 81ab 25bd
000002f0: b5e6 43bd c841 0c3c 4f97 0ebd 753c 95bd
00000300: 2354 38bd eb71 ecbd 1e62 f33d c590 90bd
00000310: b45d 863d 49d6 11be 73d1 11bd 780b 833d
00000320: 69b3 b53d 048e dabd e7be 81bc b71e 8dbd
00000330: b9a5 1abe b5d4 733d 10ab f23c 2658 a0bd
00000340: eb1b ad3d 98f0 c8bd f0db 38bb 2314 b63d
00000350: 6748 a13d 6729 a43d ecf7 f8bd 5a4e 7e3d
00000360: 5119 d53d 04d8 cc3d e736 ce3c 0340 493c
00000370: 85b5 a1bc 92d1 98bc 5295 2e3d 79b0 45bc
00000380: 80eb 68bd 0b51 a8bd 358a ec3b 9551 a8bc
00000390: 87f9 7b3d 9f98 f73d b06c 78bc 18fc d8bd
000003a0: 6cfb e0bd 3931 7abd 3b71 fbbd 5816 153d
000003b0: 818c 84bd af67 aabd dac8 c8bc 4d62 9f3c
000003c0: 0ca8 153e 24d8 adbd b108 313d 3ced 64bd
000003d0: 3aa9 a9bd f7a1 d13d 2a0b ef3d 4e72 c93d
000003e0: 186f cebd 3d33 c1bd 4f55 383e db6c e8bd
000003f0: 1545 88bd 5a48 bc3d 4ae7 363d a7c8 a9bc
0.023759466 -0.11730476 -0.03498825 0.07200307 0.031227654 -0.040885285 -0.114965625 0.0013453175
0.13195969 -0.054341484 -0.082950875 0.024368035 -0.08389486 0.12603347 -0.09249686 -0.07241413
0.08979062 -0.073503196 -0.014712999 0.03808285 -0.10449926 0.016059602 -0.05627072 -0.028697535
-0.00021077831 0.10984458 -0.061152752 0.096038185 0.12870476 -0.009780311 -0.039341595 0.09994961
-0.07242159 0.08908142 0.13394329 -0.12224183 0.13419853 0.046068527 0.116104126 -0.12390643
0.055559345 -0.028108489 0.11261321 0.08233495 -0.14303538 -0.037150558 -0.064960465 0.059784345
-0.023590386 -0.08933662 -0.002729091 -0.06345629 -0.11192981 0.072482154 0.08876704 0.081236005
-0.09069491 -0.0628219 -0.017179482 0.033953562 0.07542285 0.07614309 0.02993723 -0.1619511
0.1368068 0.044916388 0.033202484 -0.047790457 -0.10171223 -0.026695231 -0.0506651 -0.0071381778
-0.07487263 -0.0018330963 0.046320416 -0.008121117 0.10626035 0.09414155 0.0057101864 -0.06466243
-0.041541133 0.041750807 0.03249018 0.0153282955 0.072117105 0.03533917 0.007885835 0.11661726
0.042844303 0.03275619 -0.13148068 -0.10467564 0.018271804 -0.05132754 -0.042331487 -0.07422777
-0.011612184 0.028391384 0.04774281 0.05192932 0.091985404 0.055223785 0.11260362 -0.09626994
0.001073957 -0.011506075 0.0625964 0.09284484 0.12454229 0.002186984 0.034392763 0.10114753
-0.052165683 0.0993084 -0.021192204 -0.01701204 0.0856533 0.09795298 -0.009123336 -0.09876411
-0.014263457 -0.11015733 -0.012116242 0.003770065 -0.01983663 0.0065580276 0.11289256 0.0143960705
-0.014978831 0.09857348 -0.048439305 0.11485025 0.10058981 -0.101005405 0.11601088 0.01759856
0.09508414 -0.11976586 -0.14417556 -0.0028239554 -0.015527267 0.14700389 0.0012431126 0.054517385
0.075860515 0.030385757 -0.057342008 -0.07085616 0.013701299 0.02676897 -0.13053004 -0.0059248917
-0.060407206 -0.07378298 -0.08386126 -0.0428693 -0.05890527 0.06972957 -0.07855022 0.047947813
-0.09247999 0.11349788 -0.052047793 -0.05952449 -0.064396344 -0.11626351 0.048679408 0.05388257
0.049264975 -0.092469625 -0.09523807 -0.1304869 -0.071029246 0.16664381 0.06356892 0.01067696
-0.10872675 0.03185458 0.14032936 -0.027890574 -0.01092285 0.03474362 0.076141275 0.11643429
0.07895857 -0.08541347 -0.096185125 -0.040446762 -0.04782744 0.008560605 -0.034812268 -0.07286922
-0.045002114 -0.11545166 0.11883949 -0.070588626 0.06560841 -0.142419 -0.035600137 0.06398672
0.088721104 -0.106716186 -0.0158381 -0.06890624 -0.1510228 0.059529025 0.029622585 -0.07829313
0.084525906 -0.098115146 -0.0028207265 0.088905595 0.07875138 0.08015709 -0.12156662 0.06208644
0.10405219 0.10002139 0.025172664 0.012283328 -0.019739876 -0.018654618 0.04262287 -0.012066
-0.056865215 -0.08218583 0.007218624 -0.020546714 0.061517265 0.12089657 -0.015162632 -0.10594958
-0.10985455 -0.0610821 -0.122774564 0.03639826 -0.064721115 -0.08320557 -0.024509836 0.019456053
0.14614886 -0.08488491 0.04322118 -0.055890307 -0.082842305 0.102359705 0.11672051 0.09836255
-0.10079783 -0.09433601 0.18001293 -0.113488875 -0.06653801 0.091934875 0.04465417 -0.020725561

transformer_encoder.layers.0.linear1.bias f4 [256]
00000000: 6219 dabd 9936 143d 4be8 213b 0a5c 15be
00000010: ebff 953d 5d5c b03d 0f29 023c e1a0 79bd
00000020: 950b df39 fb5a dfbd ab38 98bc 6365 223d
00000030: 6513 00bd 26e1 84bd 7a38 b33d dcb7 ebbc
00000040: 6ca2 94bd 30c4 90bd 9cae e4bd 0fdc 8fbc
00000050: 0dd5 913c 86ba 98bd 501d 8bbd 85eb 0abe
00000060: fe4c 623c 86a4 113d 35d4 60bd e585 25bd
00000070: 5582 5dbd 64f3 8ebd d8f1 11be b3e0 16bd
00000080: 0629 7f3d d77c d3bd 6ecf 85bd 646c b33c
00000090: aa25 fd3c 10f5 28bd 49a0 cebd 47c9 063d
000000a0: 093d f4bd ab06 683d b090 643b 6428 6a3d
000000b0: cbf3 84bd 742f ebbd 1901 cb3d 6a51 dc3c
000000c0: 3be8 a73d 6b5b aebd 46df 10be 27bd ac3c
000000d0: 8d23 443d e776 d23d ad92 12bd a499 303d
000000e0: cee7 1d3c e484 fabd a08c 45bd 3018 b63c
000000f0: 383f 913c 8e33 b03d 9976 7d3c 661f f33a
00000100: 9fbb 2bbd 5dcc b33d 1355 02be 1616 4a3d
00000110: 770e 96bd cece b2bd 1c75 cb3c 6985 b8bd
00000120: 9281 bebd ec42 06be 7608 043d 76bc 1dbd
00000130: b69b a5bd 9046 83bd 6e7d 413d 2d54 42bd
00000140: c1fa ca3d 0ce7 09bc d879 b1ba 24ae 4a3c
00000150: 904c acbd 94b0 d3bd d9b4 9d3c d22c a43c
00000160: 8c6d f3bd fd35 f4bd bbb8 6dbd 3a08 6fbc
00000170: c95f 0b3c c8f9 dbbd bd39 943c 07dc cb3d
00000180: 70f4 8dbd e8fa 03be 1fe0 0a3d 216c 583d
00000190: c449 52bd 31ec 1dbc 5f15 3d3d 57de c9bd
000001a0: e816 173d b948 84bd fe6d 9b3a 9281 f5bc
000001b0: 0b48 773d 5a9f 99bc 21f1 193c 6e33 a13c
000001c0: b74f 00be fef8 c8bd d070 ca3d 147b c7bd
000001d0: c737 37bd cbfe b43d 7d74 13bc 2db9 95bd
000001e0: 37ac 09be 20f8 783d ebe6 d6bc 4f99 9bbd
000001f0: 5b4c 84bd 054f 193d 623b 853d 5bd4 eabd
00000200: 74f0 e7bd 17a0 bfbd 5d2e 9ebc d363 fdbd
00000210: 552b e4bc 0aa3 5dbc 3908 8b3d 9899 4a3d
00000220: cb64 17be 7d58 9ebd e299 dfbd 8782 f7bb
00000230: 6d52 883d 5e8c d2bd fba7 68bb 63ea 6c3a
00000240: ee7f c73d de4b 603b eb0e b23d 27ef 823d
00000250: 04a1 b73d 2131 dc3a f153 b03c 97ad bc3d
00000260: 8ed1 553d d2c1 d2bd 8a93 fbbd 0f64 a23d
00000270: 13cd f2bd 2526 a93c 86dd a93d 776c bd3d
00000280: a3e1 a5bd 19b4 05bd 6e28 f23c 09a2 9dbd
00000290: ed4a 723d e67e 39bd 4f74 713d 9fd3 6f3d
000002a0: f847 973c 641c d1bb e6a7 f0bd e3e6 aabd
000002b0: ffd2 4dbc 6731 cabd 8fcb b83d 0400 98bd
000002c0: 0024 4bbd 0217 f63d b114 753d 3080 1dbd
000002d0: 46ff dfbc d4de 5bbd 0a70 803d 0b3a 703d
000002e0: 9bc6 b6bd 4228 b2bd 8ef8 c03a 37ea 97bd
000002f0: d0ae 00be feb5 c93b 92d5 3ebd 276e de3d
00000300: d43f b33d e0b7 223b 7650 d93d 1a39 513d
00000310: 4ff9 883c e6ad e23d 2e2d 6d3c e849 6f3d
00000320: 59f2 46bd 36b7 31bb 7d98 16bc 1b3d 3cbd
00000330: 191f c7bd f8f6 2b3d 357e 08be 7d41 ab3c
00000340: 5d17 f9bd 87b9 703d 148a 023d 1f9a bcbd
00000350: 7375 9bbd 69aa 1bbd 00ac edbb 13a3 a73d
00000360: e431 b9bc 79f8 473d efb3 9bbc f3b4 b5bd
00000370: 505a c3bd c66a f5bd 4393 c23d 06f2 8b3d
00000380: 0d46 8fbd bf1e 9abc e13f 9c3d 144e a13d
00000390: f4bc 59bd cf6e acbc 2e43 b0bd 659e e3bd
000003a0: 51b6 ebbc 5f61 3fbc 7751 23bd 1b62 abbd
000003b0: 9ddb 2c3d 7a65 983d a3bd 613d 8879 88bd
000003c0: 76f7 debd 8551 833c 7313 3f3d d11d ebbd
000003d0: 72c9 bb3d 28e3 74bd 5821 11be bf1f b53d
000003e0: e6c5 803d 15ca 2a3d 1d36 843d 929f 15be
000003f0: 15f9 d63d 07ad aa3c 1df9 90bd eee9 8039
-0.10649373 0.03618488 0.0024705108 -0.14585891 0.07324203 0.08611367 0.007944359 -0.06094444
0.00042542504 -0.10906025 -0.018581709 0.03964747 -0.031268496 -0.06488256 0.087510064 -0.028774194
-0.07257542 -0.0706867 -0.111661166 -0.017560987 0.017801786 -0.074574515 -0.067927 -0.13566406
0.013812302 0.035557292 -0.054889876 -0.040410895 -0.054079372 -0.06980017 -0.14252412 -0.036835384
0.062294982 -0.10326546 -0.06533705 0.02190227 0.030901749 -0.041249335 -0.10089166 0.032906797
-0.11925704 0.056646984 0.003487628 0.057167426 -0.06491812 -0.1148366 0.09912319 0.02689429
0.08198591 -0.0851353 -0.14147672 0.021086289 0.047885466 0.10276585 -0.035784412 0.043115273
0.009637786 -0.12232378 -0.048229814 0.02222833 0.01773034 0.08603583 0.01547017 0.0018548786
-0.041926976 0.087792136 -0.12727766 0.04933747 -0.07326978 -0.08730851 0.024836116 -0.09009821
-0.09302057 -0.13111466 0.03223463 -0.03850981 -0.0808634 -0.06409943 0.04723876 -0.047443558
0.09911109 -0.008416902 -0.0013540341 0.01237062 -0.08413041 -0.10336414 0.019251274 0.020040903
-0.11886129 -0.1192436 -0.0580375 -0.014589364 0.008506724 -0.10741001 0.018093938 0.09954076
-0.069313884 -0.12888682 0.033905145 0.052837495 -0.05133988 -0.009638832 0.04616296 -0.09856861
0.03688708 -0.06459183 0.0011858342 -0.02996901 0.06037144 -0.018752743 0.0093958685 0.019677844
-0.12530409 -0.098131165 0.098847985 -0.09740272 -0.044730928 0.088376604 -0.008999941 -0.0731071
-0.13444601 0.060783505 -0.026233157 -0.07597601 -0.06459876 0.037428875 0.06505467 -0.11466285
-0.1132516 -0.093567066 -0.019309217 -0.123725556 -0.027852694 -0.013527641 0.06788678 0.049462885
-0.14784543 -0.077317216 -0.10918023 -0.007553402 0.066563465 -0.10280679 -0.0035500515 0.0009037612
0.097411975 0.0034224908 0.086942516 0.06393271 0.08966258 0.001679931 0.021524401 0.09212797
0.0522018 -0.102908745 -0.12284 0.07929241 -0.11855521 0.020648072 0.08294205 0.09249204
-0.080996774 -0.032642458 0.029560294 -0.076969214 0.059153486 -0.045287035 0.05894881 0.058551427
0.018466935 -0.0063815583 -0.11750774 -0.083448194 -0.012562512 -0.09872704 0.09023201 -0.07421878
-0.04959488 0.12016107 0.059834186 -0.038452327 -0.027343404 -0.053679302 0.0627137 0.058649104
-0.089246 -0.08699085 0.0014722513 -0.0741772 -0.12566686 0.0061557284 -0.046590395 0.10860854
0.087524086 0.0024828836 0.1061105 0.051079847 0.016720442 0.11068325 0.014476104 0.058420092
-0.048570964 -0.002711726 -0.0091916295 -0.045956712 -0.09722728 0.041983575 -0.13329394 0.02090525
-0.12162659 0.058770683 0.031869963 -0.09209084 -0.07590761 -0.038004313 -0.00725317 0.08185401
-0.022606798 0.048820946 -0.019006697 -0.08872404 -0.0953871 -0.11983256 0.09500744 0.06833272
-0.06995783 -0.018813489 0.076293714 0.0787622 -0.053158715 -0.021048931 -0.086065635 -0.11114196
-0.028773459 -0.01168093 -0.039872613 -0.083683215 0.042201627 0.0744123 0.055112492 -0.06663805
-0.10887043 0.016030082 0.046649408 -0.114802964 0.09169282 -0.059786946 -0.14172876 0.08843946
0.06287746 0.041696627 0.06455634 -0.14611652 0.104967274 0.020834459 -0.070787646 0.00024588354

transformer_encoder.layers.0.linear2.weight f4 [64, 256]
00000000: 6705 bb3c a183 45bd 1d49 d83c 1b73 ef3a
00000010: d3c8 903d 259a 80bc a561 1b3d 8799 e4bc
00000020: 33db adbd 1fc9 cdbc a293 b0bc 9894 a63c
00000030: 71ec ab3d b7fd 2d3d 2853 27bd 25cd b63c
00000040: f0a2 203c 9b4a 81bd bbab 30bb 1930 74bd
00000050: 817d 3bbc 4ab0 00bd 79b5 8fbd 54a2 41bd
00000060: a87b b7bc 2601 9e3c 090e 573d ad07 e73c
00000070: 5326 713d cf8a fa3b dd35 433c 8f8a 463d
00000080: 290e 8abc 93bc 2bbd 4e1e 9abc 7ca0 afbd
00000090: eeaa 9b3c a94e f2bc 20ad d3bb ca7e 1bbd
000000a0: 89bf 883d 2e9f 703d 7884 fd3c 5350 913c
000000b0: fee4 403c 8fa6 07bd 47b5 c93d 5939 a2bc
000000c0: 5175 7a3d 910e 623d d770 9d3c 3e7f b63c
000000d0: cdbf 89bd a5bd 5abd 19d5 5d3c 4a73 28bd
000000e0: c2ba 073c e3a6 143d c849 bdbc 6a80 ccbc
000000f0: 8089 35bd a652 833d 74fe 8cbd 65bd 93bd
00000100: 8c0b 3a3d 9058 8e3c 0749 c13c f0fe 303d
00000110: 4346 72bd 0a7b debb cfac 9abd 8076 47bd
00000120: ca08 2a3d 09ef eabc 58e0 d23c fbd2 2f3d
00000130: 791a 6c3d afde 67bd c488 ccbc 0109 f13a
00000140: 66fc 9bbd ebfe 81bd f94a cebb 15bf 1f3d
00000150: 9e36 e73c 7f12 15bc b2e2 193d ed3e 94bd
00000160: 6246 1ebd cb54 c33c c979 663c 501f d2bc
00000170: d9b1 99bc d260 083d 27dc ecba 91a4 1c3c
00000180: 3322 45bd 9a07 5d3d 5dd0 973c 60d1 ae3c
00000190: 8288 a13c 644d 0ebc 4cc1 b4bc 5400 c53c
000001a0: fd99 c7bd b95d 053a 26d5 80bb 86d5 013e
000001b0: 4288 8f3d 1421 e0bc 0518 17bd 7062 313d
000001c0: da83 5e3d 8754 22bd 3212 7abc fc4d 3dbd
000001d0: 2553 913d 2dab dd3b efbe 2d3d f7ac 393c
000001e0: 096c c1bb 658b 763b 6337 0ebd 7d2e 53bd
000001f0: 7f67 953d a034 17bd 912d 67bd 2ec4 77bd
00000200: 926a 423c 0740 7dbd 00ac 763c 9d62 b7bc
00000210: 64aa c6bd ff15 933c 6158 3cbd fcb3 97bc
00000220: 2f88 483d df68 92bd 162d 4d3d 0cdb 9dbd
00000230: b1a4 b93b fe23 7fbd 61e8 9abd f729 a6bb
00000240: 6c9e a1bd e9c1 3cbd e721 5abd 6ad5 9fbc
00000250: 5f42 613d 0e04 943d c37c 923d b087 4bbd
00000260: 0023 0c3d a93f 4c3d b0a4 c3bc 8b79 e2bc
00000270: b0e0 f23c 26f3 2fbc f376 0e3d 978a 6c3c
00000280: 76a4 90bc 2a48 50bc 1dd9 9a3b 4bca 94bd
00000290: ccca 4e3d bf31 223c 4f19 e5bc 3420 c5bb
000002a0: 62f3 803d 0d50 00ba 8f07 1f3d 3fb7 dabd
000002b0: 9f96 ac3d 5b52 44bc 73a6 ba3a 9a73 b9bc
000002c0: 571f 063d 3345 fabc 82d1 b83d 6a9f 0f3c
000002d0: e5dc 86bd 4895 393d c2ee 5b3d 0291 a5bc
000002e0: a213 a53c 32fd a93a 18e7 70b9 b3d0 943d
000002f0: 6cb2 acbc cf70 57bd f83a 93bc 37e3 17bd
00000300: d1e2 10bd deda 72bd e782 1e3d 5f7b 2bbc
00000310: 6813 8fbd 15d7 0dbd 5e41 2a3a 5a76 233d
00000320: 3c5a febc f211 0f3d 18c4 e1bc bf67 9bbd
00000330: 3b03 c0bd 72dc b93b b5e2 cabc a57f 323d
00000340: 6d42 10bd 4c7f 2b3d c6d7 1cbd b206 923d
00000350: 6647 03bb d1a3 9fbd 83e9 e9bc e7e0 c13c
00000360: c254 b4bc 4f37 cebc 50b9 0b3d 1dc1 563d
00000370: eb4b 1e3d d734 3ebd 61e2 563c 9bfd cf3c
00000380: d1b5 43bb 680b cf3c 0b2d 783d 2129 523d
00000390: 2ed8 08bd e2c6 833d 230a 023d b96a a5bd
000003a0: 35e2 12bd 7786 46bd 6ac9 92bd 3be3 c43d
000003b0: 4304 a6bd 1f5e 4bbd 6798 30bd 4ff0 eabc
000003c0: 5db0 9cbd 23ae 593d edab 41bd ace8 6d3d
000003d0: ab60 a83a ec12 ad3b 9ba3 983d 36a1 7ebd
000003e0: e3cf 04bd 11fd 013c 3a6d 88bc 9dce e1bb
000003f0: ea0b 1ebd cfb4 5abc 112a 893b 819a 67bb
0.022829724 -0.048221234 0.02640205 0.0018268557 0.07069554 -0.015698502 0.037934918 -0.027905239
-0.084890746 -0.025120316 -0.021554772 0.020334527 0.08394707 0.04247829 -0.04085079 0.022314617
0.009804472 -0.06313058 -0.0026957828 -0.059616182 -0.011443497 -0.031418122 -0.07017035 -0.04727395
-0.022397831 0.019287657 0.05250362 0.028201902 0.05887444 0.007645942 0.0119146975 0.048471984
-0.016852455 -0.041927885 -0.018813279 -0.08575532 0.019002404 -0.029578524 -0.006459847 -0.037962712
0.066771574 0.058745556 0.030946955 0.017738497 0.011773346 -0.033117827 0.09849029 -0.019802736
0.061147038 0.055189673 0.019218845 0.02227747 -0.06726036 -0.053403515 0.013539576 -0.041125573
0.008284273 0.036291968 -0.02310647 -0.024963576 -0.044320583 0.06412248 -0.068844706 -0.072138585
0.04542117 0.017376214 0.023594392 0.043211877 -0.059149038 -0.0067895697 -0.07552492 -0.048696995
0.04151229 -0.028678434 0.025741741 0.042925816 0.057642434 -0.056608852 -0.024967559 0.0018389524
-0.076165006 -0.0634745 -0.0062955585 0.03900059 0.028224286 -0.009098648 0.03756971 -0.07238565
-0.03864134 0.023844143 0.014067122 -0.025649697 -0.018761562 0.03329546 -0.0018070982 0.00956072
-0.048128318 0.053962328 0.018531973 0.021340072 0.019718412 -0.008685444 -0.022064827 0.024048008
-0.09746168 0.0005087513 -0.0039316593 0.12679109 0.07008411 -0.027359523 -0.03688814 0.043306768
0.054324962 -0.039631393 -0.015263127 -0.04621695 0.07095937 0.0067647905 0.042418417 0.011332742
-0.0059027714 0.0037619707 -0.03472079 -0.051558007 0.07295131 -0.03691542 -0.05643994 -0.060489826
0.011866229 -0.06182864 0.015055656 -0.02238589 -0.09700468 0.017954824 -0.045982722 -0.01851844
0.048958 -0.07148909 0.050091825 -0.077077955 0.0056653847 -0.062290184 -0.07563854 -0.0050709206
-0.07891545 -0.046083365 -0.053254988 -0.019510943 0.054994937 0.07227336 0.07152703 -0.04968995
0.034213066 0.0498654 -0.02388224 -0.027645847 0.029648155 -0.010739123 0.034781408 0.014437339
-0.017656546 -0.012712518 0.004725589 -0.07265147 0.05048637 0.009899556 -0.02796617 -0.006015802
0.062964216 -0.0004894741 0.038825568 -0.10679483 0.08427166 -0.011982526 0.001424028 -0.022638131
0.03274473 -0.030550575 0.090243354 0.008766035 -0.06585101 0.04530838 0.053694494 -0.020210747
0.020150963 0.0012969135 -0.00022974273 0.07266369 -0.021081172 -0.052597817 -0.017972454 -0.037081923
-0.03537256 -0.05929076 0.038699057 -0.010466426 -0.06986123 -0.034628946 0.0006494726 0.03990779
-0.031048886 0.034929223 -0.027559325 -0.07588147 -0.09375616 0.005672031 -0.024766305 0.043578763
-0.0352196 0.041869447 -0.038291715 0.07130183 -0.002003157 -0.077949174 -0.02855373 0.023666812
-0.022013072 -0.025172858 0.034112275 0.05243026 0.03864662 -0.04643711 0.013115496 0.025389483
-0.002986301 0.025273994 0.06058983 0.051308755 -0.03340929 0.06434418 0.03174795 -0.08076996
-0.03586026 -0.04846808 -0.07167323 0.09613653 -0.081062816 -0.049650308 -0.043114092 -0.028679041
-0.07650826 0.053144585 -0.0472831 0.05808322 0.0012846192 0.0052817967 0.0745308 -0.06216546
-0.03242482 0.007933871 -0.016653646 -0.0068910853 -0.03858558 -0.013348772 0.004185923 -0.0035339894

transformer_encoder.layers.0.linear2.bias f4 [64]
00000000: 882a b83c 1ce9 183c a129 43bd 3ab2 b23a
00000010: e03f f7bc eaf3 d7bb 3ec7 46bc 2a20 08bc
00000020: 47b3 8c3b 4f98 ecbc 8306 7e3c 1cb9 df3b
00000030: cc4b 0bbd 3bfb 933c 7473 653b 2e91 7abc
00000040: c1af ff3c 56b2 f7bb 1f7f 2c3d 062e dabc
00000050: 2444 88bb 67f8 1ebc d74c fa3c 4785 0b3c
00000060: 65bf 0abd 8061 403c c6fa 9cbc 0cdd 60bd
00000070: 658e 543d fcdf d83c e1cf 863b 8839 f03c
00000080: c4fb 553d b0b3 7d3c 25a2 d93c 130d 9c3c
00000090: 9e2c 1a3b ea76 3bbd e62c 883c 7b06 b53c
000000a0: 73fe c0bc 5fb9 483d 6ea8 8c3c 4273 63bc
000000b0: 8406 92ba d433 1a3d d659 04bd db84 fbbc
000000c0: f8aa 5cbd fd62 5e3d 8c36 bebb 3cf1 163d
000000d0: 3a8f 2cbd c77f 4a3d 27c9 f9bc 699a 78bd
000000e0: 8f69 723c 7ed5 fc3b bcad 773d 4a2d 88bc
000000f0: fded 133c d91a 903b ee59 883b b09c 9ebc
0.022481218 0.009332921 -0.047647122 0.0013633438 -0.030181825 -0.006590356 -0.012132464 -0.00830845
0.0042938325 -0.02888122 0.015504482 0.0068274867 -0.034007832 0.018064132 0.0035011442 -0.015293403
0.031211736 -0.007559101 0.04211342 -0.026633274 -0.0041585136 -0.009702778 0.030554218 0.0085156625
-0.033873934 0.011741996 -0.019162547 -0.054898307 0.05189361 0.026473992 0.0041141366 0.029324308
0.052242056 0.015484735 0.026566574 0.019049203 0.002352513 -0.045767702 0.016622972 0.022097817
-0.02355883 0.04900491 0.017170157 -0.01388246 -0.0011140858 0.037647083 -0.032312237 -0.030702999
-0.053873986 0.05429362 -0.0058048423 0.036851153 -0.04212878 0.049438264 -0.030491425 -0.060694132
0.014795675 0.00771588 0.06046842 -0.016623158 0.009028909 0.0043977317 0.004161111 -0.019361824

transformer_encoder.layers.0.norm1.weight f4 [64]
00000000: 0504 833f 8455 823f faee 7c3f e3ca 843f
00000010: 6db2 803f 99a8 803f 6910 853f 2862 7e3f
00000020: cd9a 813f 717a 883f 8eb0 7d3f 938e 803f
00000030: 9183 843f 7a95 803f 63ca 823f 1bd9 853f
00000040: 4c7d 813f d5d8 833f 890b 813f 31fa 833f
00000050: 00cd 883f 9001 853f 3d0f 843f 6326 823f
00000060: e59d 823f 624e 813f 5381 883f 904b 803f
00000070: e494 823f 09ff 863f 310c 7e3f 1b13 823f
00000080: d950 7a3f 5aa4 833f 8bc7 803f cb29 7f3f
00000090: bf33 803f 93b3 823f a53c 7e3f 1c88 813f
000000a0: b4e1 833f 0c19 843f e142 833f 5507 853f
000000b0: 80e9 803f 05db 853f 5919 863f 99ae 7f3f
000000c0: f948 803f 7d1b 833f e48c 813f 4032 823f
000000d0: 5906 823f 1d47 803f ffa6 7f3f 584c 823f
000000e0: c83a 883f 35d7 7c3f d091 813f 9e90 823f
000000f0: ddf7 823f ef2c 853f ccac 883f 0044 803f
1.0235602 1.0182347 0.9880215 1.0374416 1.0054451 1.0051452 1.0395633 0.99368525
1.0125366 1.0662366 0.99097526 1.004351 1.0352651 1.0045617 1.0218014 1.045688
1.0116363 1.0300547 1.0081645 1.0310727 1.0687561 1.0391102 1.031715 1.0167965
1.0204436 1.0102046 1.0664467 1.002306 1.0201688 1.054658 0.9923735 1.016208
0.97779614 1.0284531 1.0060896 0.99673146 1.0015792 1.0211052 0.99311286 1.0119662
1.0303254 1.0320144 1.0254785 1.0392863 1.0071259 1.0457464 1.0476485 0.9987579
1.002227 1.0242764 1.0121121 1.0171585 1.0158187 1.0021702 0.9986419 1.0179548
1.0642939 0.9876588 1.0122623 1.0200384 1.0231892 1.0404338 1.0677733 1.0020752

transformer_encoder.layers.0.norm1.bias f4 [64]
00000000: 4877 95bb a8a2 d33b 2af2 a73c 2ea7 243b
00000010: e529 b1bc b496 65bd 7323 2d3c 26b2 96bc
00000020: 5c04 b4bb 0504 0e3b cf2e ad3c 2984 213b
00000030: 8e6c b43c 7492 1c3b d596 85bc c715 5b3c
00000040: 62b6 8dbc 8537 6bba 72f8 7e3c af82 2cbc
00000050: 0468 c73b ad3d 7bbb b095 cdbb ef65 9e3b
00000060: c3bc 683b 8109 80bc b5c2 863c 8c5b d83b
00000070: 9c58 273c e510 82bc 6cb5 8aba e4bc 923c
00000080: 8cb4 32bc a4de 9d3c d8b3 74bc 2722 e23c
00000090: d11f 053c 803b 923b faac 853c 81bf 0fba
000000a0: 5e22 77ba 013d 9dbc 91fb 1bbd 580c 053d
000000b0: 71e9 3fbc 3041 8d3c f704 03bc 4a74 87bb
000000c0: d1ae e33a af0c 38bb b06f 68bc 8047 ecbb
000000d0: 9aab aa3b decf cbbc 843c 0abc 55f6 ff3a
000000e0: f883 9d3b a450 57b8 1d48 3dbc 4bb9 30bc
000000f0: fdc1 e63c 74be b4bc 80cd 0cbb a0d2 93bc
-0.0045613386 0.006458599 0.020501215 0.002512406 -0.021626422 -0.056051925 0.010567534 -0.018395495
-0.0054936837 0.0021669876 0.021140484 0.0024645424 0.02202442 0.0023891004 -0.016307274 0.013371891
-0.017298881 -0.00089728116 0.015562164 -0.010529204 0.0060853977 -0.0038336322 -0.0062739477 0.004833929
0.0035512901 -0.015629532 0.016450265 0.00660271 0.010213997 -0.015877197 -0.0010582632 0.017912336
-0.010907304 0.019271202 -0.014935456 0.027604176 0.008125261 0.0044626594 0.016317833 -0.00054835534
-0.00094274234 -0.019194128 -0.03808171 0.032482475 -0.011713372 0.017242998 -0.007996789 -0.004133736
0.0017370825 -0.0028083732 -0.014186785 -0.007210672 0.005208445 -0.024879392 -0.00843728 0.0019528369
0.0048069917 -5.1335097e-05 -0.011552838 -0.010786365 0.028168673 -0.022063471 -0.0021484792 -0.01804477

transformer_encoder.layers.0.norm2.weight f4 [64]
00000000: bf1e 803f 30b2 7e3f 0cfc 7b3f c5ae 823f
00000010: 8c56 823f bf1a 763f 2a45 803f 2400 793f
00000020: ab35 803f 80bb 833f 35d5 7e3f 297d 7c3f
00000030: 906d 823f 0887 7e3f 10c1 823f 2bc3 833f
00000040: 0965 813f 8a40 823f 1c84 803f b304 7c3f
00000050: c050 833f 8773 7d3f c1a8 833f ecbb 7d3f
00000060: aba7 813f 6d2f 823f e0a0 833f 3f4f 7a3f
00000070: 066e 7f3f c54a 833f 08bd 7d3f ed1a 7c3f
00000080: b9d7 743f d283 803f 102e 813f 087a 7e3f
00000090: 63ff 7b3f 80e6 7d3f 54e1 7d3f d4d9 773f
000000a0: 5762 843f 08c7 813f 482b 733f e22e 823f
000000b0: 3dc6 773f e017 813f d253 803f 08ae 793f
000000c0: 6ee3 7f3f 500c 7d3f fbe5 813f bf17 803f
000000d0: 9c41 7b3f f796 803f 48a7 7b3f 196c 7f3f
000000e0: 1808 813f 0e45 763f e5aa 803f 2ba3 793f
000000f0: 13e7 7b3f bc87 843f 465a 7d3f 02bb 803f
1.0009383 0.9949064 0.9843147 1.0209585 1.0182662 0.9613456 1.0021107 0.9726584
1.0016378 1.0291595 0.9954408 0.9862848 1.0189686 0.9942479 1.0215168 1.0293936
1.0108958 1.0175946 1.0040317 0.9844467 1.0259018 0.99004406 1.0285875 0.9911487
1.0129293 1.0170723 1.028347 0.9777717 0.9977726 1.0257193 0.99116564 0.98478585
0.95641667 1.0040228 1.0092182 0.99404955 0.98436564 0.9917984 0.9917195 0.96816754
1.0342511 1.0138865 0.94987917 1.0170557 0.9678686 1.0085411 1.002558 0.97531176
0.99956405 0.9884691 1.014831 1.0007247 0.98146987 1.0046071 0.98302126 0.9977432
1.0080595 0.9619912 1.0052153 0.975146 0.98399466 1.0353923 0.9896587 1.005707

transformer_encoder.layers.0.norm2.bias f4 [64]
00000000: dc51 8abb 43da 813c 47df 733c e1a0 f9bb
00000010: 46a4 96bc db5e ebbc b68d c73b 6dcd 983a
00000020: 0962 2dbc f94d 8b3a ea3e 673c 0530 57bc
00000030: 12ab 013d 408e 1539 28b5 70bc e99e 113c
00000040: 73d5 bfbb 274b b3bb a624 933c 8cf4 3d3b
00000050: 3a06 843c a02c ed3b 2771 73bc e711 62bb
00000060: 4c29 00bc 381f 96bc c85e 8f3b 7f2b debb
00000070: a96a 033c 260b 12bc a9db 413c 262d 533c
00000080: e854 4fbc cd5a 203c 6526 15bc a8a4 f43c
00000090: 85c6 893c a09c 9abb d7cc 05b9 34fb 8c3b
000000a0: 256b 1e3b f013 a0bb 1e25 1cbd 69a4 603c
000000b0: ec9c bab9 0cf0 603c dab3 4bba 33d8 8dbc
000000c0: 0685 403c 0cf9 0f3c ce3a 283b 8016 d2ba
000000d0: 2591 4e3c 43ae 00bd 06a8 fcbb 625c 66bb
000000e0: 33c0 ec3a daca 393b 10d1 13ba a0a8 6f3c
000000f0: 73de d13c fc68 61bc d38b 72bc 8ee0 a1bb
-0.004221184 0.015851146 0.014884776 -0.007618055 -0.018388879 -0.028731754 0.0060898913 0.0011657901
-0.010582455 0.0010628096 0.014114121 -0.013134007 0.031657286 0.0001426274 -0.0146916285 0.008887985
-0.0058543026 -0.0054716053 0.017961811 0.0028984873 0.01611625 0.0072379857 -0.014858521 -0.0034495534
-0.007822346 -0.018325433 0.0043753125 -0.0067800875 0.008021035 -0.008913791 0.011832156 0.012889182
-0.012654521 0.009787274 -0.009103392 0.02986367 0.016818294 -0.004718378 -0.00012760177 0.0043024067
0.002417275 -0.0048851892 -0.038121335 0.013711073 -0.000355936 0.013729107 -0.00077706354 -0.017315006
0.011750465 0.008787405 0.0025669816 -0.0016028434 0.012607847 -0.03141619 -0.0077104596 -0.003515028
0.0018062651 0.0028349669 -0.0005638758 0.014627606 0.025618767 -0.01375794 -0.0148038445 -0.004940099
